tests/test_data/mnistnet_training_checkpoint.pt (torch, 770119 bytes, 24 tensors)

layer1.0.weight f4 [16, 1, 5, 5]
00000000: 46d4 2ebe 3b3d bebd dd93 1fbe 0918 61bd
00000010: c661 65be 9413 8dbd 5585 0ebd 79d6 14be
00000020: 6841 e03d f76b bc3d d6d8 4dbe 58a3 1abe
00000030: 8fe2 903d 3d1a 273e 5b43 cabd 1a20 2cbe
00000040: 1c47 bbbd 53f2 ffbd 9940 23be b436 0b3b
00000050: fb03 1bbe e539 a23d 189f 8bbd b6fa 313e
00000060: 1358 833b df25 1bbd 3966 4b3d 1b79 0a3e
00000070: ef62 18be 5388 a1bd 3587 18bd 3277 dfbd
00000080: d4ca 0abe e301 163e 42eb 07be 629a 443e
00000090: 43c2 5d3d e04c dcbd 3c3f 19be 68f7 47be
000000a0: 8fbb 133e 2b07 5c3d a5a5 bdbd fb9a a43d
000000b0: 14a5 82bd f8e1 94bd 45e8 093e 5afa 17be
000000c0: 8eeb 6dbe fc4b d9bd e44e 303e 5e0b 02be
000000d0: 4a4f b6bd 7ea2 ffbd 51ee 9d3d ec40 463c
000000e0: 5bac cabd 2829 a63d 2c7f b33d ba9d 16be
000000f0: e839 023e 465b 31be 4326 0fbe 390b 803d
00000100: 9519 23be 7812 0fbe f641 8f3d b7d8 64bb
00000110: f73c fe3c 9374 b53d d6f5 abbd 9fc1 51be
00000120: 4f4a e2bc 9f71 613d 4740 b83d f6d0 da3d
00000130: 999f 223e c3f2 f9bc 5eac 263e 0222 233e
00000140: bcb1 36be 66fc d13d d52d 40be a97b 9bbd
00000150: 3b21 0ebe 06c9 3a3d 8f86 193d 8748 cf3d
00000160: 7bb9 bdbb f054 13be 7d81 b23c 8f3a 133d
00000170: edc6 fcbd 1743 a7bd 5c72 14be 7644 00be
00000180: 9a76 5abe 07a8 3abd c7ea c1bd 92e6 6e3d
00000190: 3fed 1ebe a3ed 043e be84 4bbe aa35 263e
000001a0: 73a9 fe3c faa6 7e3c 0e75 3e3c 9166 053e
000001b0: 1df0 0a3d 8992 ca3d 4460 863b 9d59 393d
000001c0: 43aa ce3d 9c22 26be fc3a 7b3d 4745 04bd
000001d0: 76ef adbd d6a3 03bd a1fb babd 3ada 96bd
000001e0: ba26 cb3d d32c ab3d c96d 1dbe edf6 4f3c
000001f0: a427 c33c 054c c93d fdcd f0bd 54ce 02be
00000200: 5a6a ae3d 732d 9b38 0990 06be 43fc 11bd
00000210: ca65 a83d 1aa4 223d 600c 21bd a9da bf3d
00000220: ec47 ffbd c3b9 173e bc88 d0bd 30f1 c43c
00000230: f5dc 223e 8e3d 8cbd 98df a73d 8c47 e63d
00000240: 7878 59bc 4415 c53c 7fd2 093e 4ea0 d5bd
00000250: fe17 443e e8bb 28be 6e4f b7bd 54b2 303e
00000260: 35ce e33d 4e62 8ebc caeb 773d 580a efbd
00000270: 9bd1 4fbc 7e27 3abe ab3a 103e 8d91 62be
00000280: f19d 9d3d ce51 153e aa2f 843d 10ed 6dbe
00000290: 3563 7cbe 5c35 673d 1f46 283d 22b0 b13d
000002a0: 4192 8dbd 6a0b 88bd 34cb 863d 77e7 183e
000002b0: 5030 48be 270c 9fbd d2fc 0dbc f439 853c
000002c0: e42e c6bd cc00 f9bc 47bc f5bd d4c0 22be
000002d0: eb10 573d e98c d63d 4dfb a2bd 8d6c d3bd
000002e0: 3bda c7bd 6488 cabd 05f0 983d f92a afbd
000002f0: 4978 42bd 8c61 173e 36a1 243e 14c2 88bd
00000300: f4d3 febc aed6 84bb a432 273e 1645 753d
00000310: 2a19 b9bd 934f 123e 816a dc3c f122 d2bd
00000320: 53d8 a93d 1285 afbd 9cf8 19be 3532 67bd
00000330: 6a3e 563c e7fc 3bbd 2165 503c 56b0 ba3d
00000340: cbd9 1abe df6d d13c 3dba bdbc 7be8 543e
00000350: c4d4 3c3e 578b e13d 406b 0f3e acfd 3b3d
00000360: f3ae 50bc 5d9e 43be b7c1 67be 905a c6bd
00000370: ae03 b0bd aa26 433e 110d 02bd 0ec3 353d
00000380: 9d43 99bd eb28 6b3c b12d 9dbd 0ec4 e93d
00000390: 0bc8 3fbe 7f5f d3bc 9dba 35be f87c c7bd
000003a0: bcd5 42be 5792 92bd d497 f23d 5ab1 b43d
000003b0: 7c26 163e 2662 0abe cab7 d93d 5859 55bd
000003c0: bd0c 993c e797 febd b22d 3b3d ad86 dd3d
000003d0: 45cc 77bd 9117 b4bb a16b f33d e5aa 8c3d
000003e0: ce2f 9ebd e79a 53be 8be8 1abd 8434 ff3d
000003f0: d30f 903d fc05 3cbd 45ff c1bc 7208 04be
-0.17073163 -0.092890225 -0.15583749 -0.054954562 -0.22400579 -0.068885 -0.034795124 -0.1453494
0.10949975 0.0920028 -0.20102248 -0.15101373 0.070744626 0.16318603 -0.09876128 -0.16809121
-0.091444224 -0.124973916 -0.15942611 0.0021242322 -0.15138237 0.07921199 -0.06817454 0.17380795
0.004008302 -0.037877914 0.049658034 0.1352276 -0.1488149 -0.0788733 -0.03723832 -0.109114066
-0.13553935 0.14649157 -0.13273337 0.19199517 0.05414034 -0.1075685 -0.14965528 -0.19527972
0.14427017 0.053717773 -0.0926011 0.08037373 -0.063791424 -0.072696626 0.1346751 -0.14841595
-0.23234388 -0.10610196 0.17217594 -0.12699649 -0.08901842 -0.12482165 0.07711471 0.0121004395
-0.098961554 0.08113319 0.087644905 -0.14708605 0.12717402 -0.17319974 -0.1397944 0.062521406
-0.15927728 -0.13971889 0.06995003 -0.0034919211 0.03103493 0.088601254 -0.08396499 -0.20484017
-0.027623324 0.05504 0.08996635 0.106843874 0.15881194 -0.030511266 0.1627669 0.15930942
-0.17841238 0.10253219 -0.18767484 -0.07591946 -0.13879864 0.045601867 0.03748184 0.10121255
-0.0057899333 -0.1438787 0.02179026 0.035944518 -0.123426296 -0.08167093 -0.1449675 -0.12526116
-0.21334305 -0.0455704 -0.09468608 0.058325358 -0.1552019 0.12981276 -0.19874856 0.16231409
0.031086659 0.01554274 0.011624588 0.13027407 0.033920396 0.098912306 0.004100831 0.045251478
0.100910686 -0.1622414 0.06133555 -0.03229263 -0.08492939 -0.032138668 -0.09130026 -0.07365842
0.09919496 0.08358159 -0.15373911 0.012693149 0.023822613 0.09828953 -0.11758039 -0.1277402
0.08516379 7.3994415e-05 -0.13140883 -0.035640966 0.0822254 0.03970728 -0.039318442 0.09367878
-0.1246489 0.14816956 -0.1018233 0.024040788 0.15904601 -0.06847678 0.08196944 0.11244115
-0.013273351 0.024057992 0.13459204 -0.10430966 0.19149777 -0.1647793 -0.08950697 0.17255527
0.11123315 -0.01738086 0.0605276 -0.11671895 -0.012684251 -0.18179128 0.1408488 -0.22125836
0.076961406 0.14581987 0.06454404 -0.23234963 -0.2464722 0.05644737 0.041082498 0.08676173
-0.06912661 -0.06642802 0.06581727 0.14932047 -0.1954968 -0.0776599 -0.008666234 0.016262986
-0.096769124 -0.030395888 -0.11998802 -0.1589387 0.05250637 0.10476095 -0.07958088 -0.10323439
-0.09758421 -0.09889296 0.07467655 -0.08553118 -0.047477994 0.14783305 0.16077122 -0.066776425
-0.031106927 -0.004053912 0.16327912 0.05988034 -0.09038003 0.14288168 0.026906254 -0.10260571
0.08293214 -0.08570303 -0.15036243 -0.056444366 0.013076404 -0.045895483 0.0127194235 0.09115665
-0.15122144 0.025565086 -0.023160094 0.2079181 0.18440539 0.11012905 0.14005756 0.045896217
-0.012737024 -0.1910338 -0.2263249 -0.09685242 -0.08594452 0.19057718 -0.031750742 0.04437547
-0.07483599 0.014353017 -0.076747306 0.114143476 -0.18728654 -0.025802372 -0.17746969 -0.09740633
-0.19026846 -0.07156818 0.11845365 0.088228896 0.14663118 -0.13514003 0.10630758 -0.052087158
0.018682832 -0.12431317 0.045697875 0.10816703 -0.06049754 -0.0054959734 0.11885763 0.06868533
-0.07723962 -0.2066456 -0.037819427 0.124611884 0.07034268 -0.045904145 -0.023681292 -0.12893847

layer1.0.bias f4 [16]
00000000: 8303 7a3e e5c8 e1bd 30b7 5dbe f32a 33be
00000010: 41fb c5bd e4da 533d c947 62be 2c7f 0bbe
00000020: 0c4a 143e 9731 253e 0745 1a3d 3d2f 1fbe
00000030: 5a87 08be 793f 6cbe 9060 8e3d 349c bc3c
0.24415402 -0.11024646 -0.21651912 -0.17496853 -0.096670635 0.051722422 -0.22097696 -0.13622731
0.14481372 0.16132198 0.037663486 -0.15545364 -0.13332883 -0.23071088 0.069520116 0.023023702

layer2.0.weight f4 [32, 16, 5, 5]
00000000: 0fca f0bc d957 34bd 9935 00bd 5450 84bd
00000010: f257 58bc 66e7 f23c a481 403d 8568 94bb
00000020: 91cd 96bc c38e 523c 1243 0bbc 7dd9 86bc
00000030: 0e0c 0cbd 1743 173d 2b32 e5bb 41bb a33d
00000040: c09f 64bb e0b7 43bd a828 3ebd a68b c23c
00000050: 6816 0d3d 5407 c83c 00ba 7e3c ae83 653c
00000060: efa0 0bbc e7ef 513d 6e71 07bd 4a6a 84bd
00000070: 8f06 66bd e4df 803d e407 693b 194d 823c
00000080: db39 5abd 8d80 87bd 906c 9a3c fd6f f13c
00000090: 05f4 adbc b196 c1bc 9e22 09bd b4b1 07bd
000000a0: cc14 30bc de40 eb3b f1a5 8abc f492 0c3c
000000b0: a476 b3bc 9f87 0a3d 4048 94bc e8b1 cf3b
000000c0: 7009 93bc 40fb 01bb c62f a33c b871 5ebd
000000d0: 5171 023d 652c c5bc 6b54 423c e531 ecbc
000000e0: a301 283c 6e73 b9bb d606 c1bb 24ba 2abc
000000f0: 0bb7 3bbd 5c17 2e3d 57e1 2e3d 6d2c fc3a
00000100: fb87 24bb a22b e33b a566 bfbc 2a24 c8bc
00000110: 3031 613c aac2 5cbd 2bb0 2f3d 833e 07bd
00000120: 863f bb3c 4d0b 803c 8392 c93a 215e d8bc
00000130: 087b 5e3d f671 f9bc 8545 74bc 7f34 babc
00000140: f44b d2bc 30f9 983b f5a6 843c 5501 36bd
00000150: 5f7b 67bd d285 d43b 1084 87bc d188 8f3b
00000160: 6060 bfbb a442 a7bc 7157 20bd 29ad f7bb
00000170: 4c11 a43c 2d6f ec3b ced5 d03c 5d43 7fbb
00000180: 954b 59bd 1e42 763c 2d72 19bd e89c b9bb
00000190: fe61 20bd e6f6 00bd e466 c23c f943 6d3c
000001a0: 3af3 5cbd 6c7a 7bbd 95a0 23bd 67f7 123c
000001b0: a1af 013d 824f 523c 7c41 49bc a079 2b3d
000001c0: 335b 87bb d5b9 413d 634d 1b3c dcfb 35bd
000001d0: f552 13bc 7df1 da3c 9b3b a5bc dd1b e23b
000001e0: 1fc9 babc 9ef1 583d 651f 1abd ff40 523d
000001f0: d569 1a3b cae7 2fbd 1dcc eebc 4af4 ddbc
00000200: 5794 2ebc 1f10 8a3c 6bd5 18bd 54c5 85bd
00000210: e388 423c 8b26 4b3d a746 323d bf9f 4abd
00000220: 983b 183d e0be acbc 4d46 88bb 89f9 85bc
00000230: a382 8cbd 2706 c4bc 19a0 0abd 3fa1 643d
00000240: 11ac 6dbc 4a9e c4bc f61b ba3c 8d4c 663b
00000250: c86c afbc 9964 70bd 21d8 ea3c bb1e 033d
00000260: 45d3 3fbd 1ada 413c e868 93bb 29af 7ebd
00000270: f887 ca3c 5d99 ebbc 6266 5ebc c55e 573d
00000280: 9d4c b9bc 184a 41bd f8ff 7bbd db73 cebc
00000290: 3165 12bc afe5 cc3c 4cea 69bc da20 50bc
000002a0: 1ad7 06bb a25d 0dbd a6f5 ebbc 6a99 efbc
000002b0: 8b63 e63c 50a5 70bc 4f57 b3bb 3e48 d1bc
000002c0: a1a8 6dbd 20eb 89bd c4cc debc f0fe 943c
000002d0: 6479 a93c 9771 69bb b448 813c af43 8abc
000002e0: 6ef5 b33c 69fa ff3c 8416 223d 4e09 103c
000002f0: 5f81 35bc 9679 e73c ce46 5f3d a4ae 61bc
00000300: 69bc 1fbc df96 31bd 0a16 8ebd 9564 353b
00000310: bbd1 933c aeb2 95bd 60cc 22bd 1bf7 b7ba
00000320: 05cb 143d 1191 81bc f176 61bd d893 71bd
00000330: ca51 103d 501c 6ebd 4657 8dbc ff67 8ebd
00000340: 947c 8c3c e354 c23b a1ed 9e3d cdb4 92bd
00000350: 46f1 0e3d d847 7ebd 7641 02bd c875 9e3d
00000360: 7001 923c 6a5c db3c c37a 86bd 344a 0ebc
00000370: cbe8 283c 112a fd3c ef46 3d3d ffa2 5fbc
00000380: 327f c13b 01c8 ba3c dd38 393d b1e0 603b
00000390: 3508 e4bc 6601 013d 033a 3cbd 401c 6e3a
000003a0: ec6d 53bc 6c21 4abd d80b 36bc 001b 993c
000003b0: 9165 75bc 5830 a63c 4b82 09bd ef17 18bd
000003c0: 1118 b73d bd6c 993d 573c d8bb 0ded c0bc
000003d0: c8c5 70bc c115 04bd 783c 783d eab7 0e3c
000003e0: e3c8 0ebd f6d3 c2bd 0a93 1fbb db98 3abd
000003f0: 583c c6bc 5b5d 9c3a a81d c93c fb96 d33c
-0.029393224 -0.04402909 -0.031301115 -0.06460634 -0.013204562 0.029651355 0.046998635 -0.0045290613
-0.018408569 0.01285142 -0.0084998775 -0.016461128 -0.034191184 0.036929216 -0.006994506 0.079947
-0.0034885257 -0.04778278 -0.04642549 0.02374823 0.034445196 0.024417557 0.015547276 0.014008446
-0.008522256 0.05125418 -0.03306716 -0.064655855 -0.0561586 0.06292704 0.0035557682 0.015905904
-0.05327783 -0.06616316 0.018850595 0.029472345 -0.021234522 -0.023631426 -0.03348028 -0.033128455
-0.010747146 0.0071793636 -0.01692483 0.008579958 -0.021907158 0.033820745 -0.018100858 0.0063383467
-0.017948836 -0.0019833595 0.019920241 -0.05430767 0.03184635 -0.02406902 0.011860947 -0.028832385
0.0102542965 -0.0056595122 -0.0058907075 -0.010420356 -0.04582886 0.042502746 0.04269537 0.0019239314
-0.0025105465 0.0069326917 -0.023364374 -0.024431307 0.013744637 -0.053896584 0.042892616 -0.0330186
0.022857439 0.015630389 0.0015378747 -0.026412072 0.05431655 -0.030449849 -0.014909153 -0.02273011
-0.025670983 0.0046683773 0.016192893 -0.044434864 -0.05651414 0.006485679 -0.016542464 0.0043803235
-0.005840346 -0.020417519 -0.03914589 -0.007558484 0.020027779 0.0072154016 0.025492575 -0.0038950064
-0.053050596 0.015030412 -0.037462402 -0.0056644566 -0.039155953 -0.03148546 0.023730703 0.014481538
-0.053942896 -0.061396047 -0.039948065 0.008970118 0.031661633 0.012836339 -0.012283679 0.041864038
-0.004130745 0.047296364 0.0094789 -0.044429645 -0.0089919465 0.026726479 -0.020170024 0.006900294
-0.02280098 0.0529648 -0.037627596 0.051331516 0.0023561616 -0.04294566 -0.029150063 -0.027094025
-0.010655484 0.01685339 -0.037312906 -0.06531778 0.011873457 0.049597304 0.04352441 -0.049468752
0.037166208 -0.02108711 -0.004158771 -0.01635434 -0.068608545 -0.023928715 -0.033844087 0.05581784
-0.014506356 -0.02400126 0.022718411 0.0035140843 -0.021414176 -0.058689687 0.028667511 0.03201173
-0.04683234 0.011831785 -0.00449859 -0.062178764 0.024723038 -0.028759653 -0.013574215 0.052580614
-0.02261954 -0.047189802 -0.061523408 -0.025201729 -0.008935259 0.025011865 -0.014277052 -0.012703145
-0.0020574988 -0.034513123 -0.028803658 -0.029247958 0.028123638 -0.014687851 -0.0054730545 -0.025547143
-0.058022145 -0.067343 -0.02719725 0.01818797 0.020687766 -0.0035620683 0.015781738 -0.016877977
0.021967616 0.031247335 0.039572254 0.008791281 -0.011078208 0.028256219 0.054510884 -0.013774548
-0.00974951 -0.043356773 -0.06937797 0.002767836 0.018044343 -0.07309471 -0.03974569 -0.0014035435
0.036326427 -0.015816243 -0.055045072 -0.058978885 0.03523425 -0.05813247 -0.01725353 -0.069534294
0.017149247 0.0059305294 0.07760168 -0.07163391 0.034898065 -0.062080234 -0.03180071 0.07737309
0.017822951 0.026777465 -0.06566384 -0.008684684 0.010309408 0.030903848 0.046210226 -0.013649701
0.0059050554 0.022800447 0.045220245 0.0034313614 -0.027835945 0.031495474 -0.04595376 0.0009083189
-0.012904625 -0.04934828 -0.011111222 0.018689632 -0.014977829 0.020286724 -0.033571523 -0.0371322
0.08940137 0.07491443 -0.00659899 -0.023550535 -0.014695592 -0.03224731 0.060604542 0.008710841
-0.03485955 -0.095130846 -0.0024349117 -0.04555593 -0.024198696 0.0011929678 0.024550274 0.025828829

layer2.0.bias f4 [32]
00000000: 3627 873b 9028 f33a 2e27 ca3c 4c97 f5bc
00000010: 61fb 2cbd ca95 f2bd 26df a1bd 5fcb 76bd
00000020: a1d6 c6bc 1562 d9bc 226a 7ebd a198 52bb
00000030: 7e01 5dbd ed37 0cbd 236e dabb 26f5 8ebc
00000040: f99a ec3b 65e2 ba3c 6014 2838 ffdd f2bc
00000050: 80a7 923c 6565 80bc 3b8c 3fbc 172b c43b
00000060: 1966 06bd 64c1 fbbb 9829 873c 8552 e53c
00000070: 769a 083d 34f4 98bd b409 9bbd b24a 10bd
0.0041245474 0.0018551517 0.024676885 -0.02997937 -0.04223192 -0.11844976 -0.0790389 -0.060252544
-0.024272265 -0.026536027 -0.062112935 -0.003213443 -0.0539565 -0.034233022 -0.0066659614 -0.01745088
0.0072206226 0.022813031 4.0073297e-05 -0.029646872 0.017902136 -0.015673349 -0.011691148 0.005986582
-0.03281221 -0.007682966 0.016499326 0.02799345 0.03335043 -0.07468453 -0.0757021 -0.035227485

fc1.weight f4 [32, 1568]
00000000: ee68 b83b 8c13 593c 048b f4bc e936 953c
00000010: 7e98 513c 6301 89bc b655 143c 3015 d2bc
00000020: cb5c 2fbc 9984 d93c 15e3 943b d4aa 09bb
00000030: 38eb c9bc 49ea e4bb 1eea 90bc 8db8 2f3c
00000040: 5d6f 27bc edd4 3e3c 7363 65bb fe43 3dbc
00000050: f48b 8e3c 04eb 073c 9393 933c a265 89bc
00000060: 00ea 2d3c 9809 69bc b78d a13c 2436 1b3c
00000070: 3076 91bc 5fdc 433c 453d 4fbc c37e b03c
00000080: b813 d83a 7ade 4fbc 7620 c83a d655 b73a
00000090: 3611 953c 30b6 3cbc 2e11 273a 4cde a73c
000000a0: 9608 573c f0c9 a9bc 7c9d 15bb b924 8a3c
000000b0: 1eaa a83c 9ea3 fabc 13c6 ffbc 9763 a2bc
000000c0: 1785 de3a 86a6 7ebc b1c4 06bd 2c5c 9ebc
000000d0: 986f eabc ffd6 9dbc 0f84 993c cffd 4d3b
000000e0: 4b4c ab3b de12 2e3a 5fd6 8ebc 82b5 42ba
000000f0: 9206 f0bb 3a16 69bc 515c 7a3a 781a 8a3b
00000100: 8721 8fbc f091 cfbb 2c2b acbc 0e42 cabb
00000110: 06be 9cbc 350d ecbc 21dc 7b3b dce7 32bb
00000120: 230b 0d3c 931e 8ebc 3e91 fa3b 6e86 2c3c
00000130: 6e56 e23c 35fa f13c 8e1f b43c 93d1 2bbc
00000140: 6246 b03c 2f27 7dbc df50 e83c 1fbf 0b3d
00000150: b9b0 f13c ade9 193b bd49 da3b ff41 353c
00000160: e503 c83b bc09 b83b be29 123d 4097 a3bc
00000170: 29ec 793c f06a ccbc a45a 99bb 150b 02bc
00000180: 2e01 c53a aaa2 1e3c 2146 00bd 54ec c83c
00000190: a9bc b93c be67 a8ba 5269 ed3b 023e 8a3b
000001a0: f3c3 d73c 463b 7bb8 271d 073c dcd1 2fb9
000001b0: e097 58bb 3c6e 76bc 6799 193c 29de 143b
000001c0: 0422 8abb a330 043d 6f7c 1b3c 8b3c 9f3c
000001d0: 5583 edbc 46ad 213b a9a9 b3b8 5f2d 81bc
000001e0: 25b8 2d3b e0f8 773c a3c1 93bb 89fd 883b
000001f0: 83d2 8e3c ae55 aebc 25f4 83bb a723 54bb
00000200: beeb b7bc 3337 b23a 05f0 e8bb 31df e6bb
00000210: 6411 ff3c fc6f d03c d84a b7bc 15b9 703c
00000220: fcbf 9a3a ca80 993b ae46 5f3c 2fc2 5dbc
00000230: a0cf 893c 9c4b 953b 041f 4cbb 41ec 98bc
00000240: 8ec6 6d3c ec4c d1bb 14b3 db3c f8a1 523c
00000250: 2609 1bbc 7aa2 013a 8313 07bd a8b3 cb3c
00000260: 6ba0 0f3c a0a9 a0bc e6f6 e13c f68d 033d
00000270: 0dd8 05bc 6c66 05bc 3ae9 a13c 2989 623c
00000280: 76dc 2ebc 5c20 acbb eeb7 7cbb 9824 f03c
00000290: 41dc 8fbc fd39 de3b 79dd d13c d109 b9bb
000002a0: faea 153c bbd6 dd3b dd40 503c 4d33 173c
000002b0: 7908 cabb 5f7c ad3c b2b8 ecbb aef8 ebbc
000002c0: cfbe a13b b9a0 0f3d cf33 8abc 29e4 2cbc
000002d0: 0000 8e3c fbf3 2b3c da00 253c 90d3 ecbb
000002e0: a9c7 caba 13bd 9e3c ea3e a1bc 017f d93b
000002f0: 7254 e7bc 1ccc 98bc 258c a7bc cf42 b6bc
00000300: 30d2 4abc f005 dbbb 597e d7bc 3922 b7bb
00000310: f710 4d3c 6ff6 23bc a67f 01bd 0522 e83c
00000320: 0b99 0ebc 9a42 febb b5fa 96bb 590f 003d
00000330: 26de 99bb ea7e 21bc aef7 9dbc 9a0c b7bc
00000340: 38ac f6b9 2da7 ba3c 1b96 f13c 447f 5abc
00000350: 7d4f 383b 8408 f9bb bfc6 4dbc d481 7f3c
00000360: dcc9 a43c 1c78 303c 40fd 8e3c ecca 90bb
00000370: bc09 b93b 11c1 563c 1b2c 063d f117 053c
00000380: 8e43 a63c 387d b33c 32ce 833c 2485 413c
00000390: 5a89 cebc 8458 823c 8688 8ebc db98 4fb9
000003a0: 7d3b e4bb 6950 483c 2bd1 b53a 0184 70bc
000003b0: fc20 87bc 0b20 65bc 5698 b0bc 114b 8d3c
000003c0: ec21 f43b bf04 8b3b ff0d 963c 3170 fbba
000003d0: 8e7a 92ba e6dc 73bc 36bb 05bb e954 efbc
000003e0: eb9b 5d3c 29fa b93b adce 17bb 3019 01bc
000003f0: 66d2 f53c 6f4d 8ebc b286 0f3c da73 61bc
0.005627743 0.013249289 -0.029851444 0.01821466 0.012792705 -0.016724294 0.009053638 -0.025644869
-0.010703276 0.026552485 0.004543672 -0.0021006363 -0.024648294 -0.006985937 -0.01768976 0.010725153
-0.010219422 0.011647445 -0.0035001903 -0.011551855 0.01740072 0.008295778 0.018014705 -0.016772095
0.010614872 -0.014223479 0.019720895 0.009473357 -0.017756552 0.011954396 -0.012648885 0.02154482
0.0016485369 -0.01268732 0.0015268463 0.0013987373 0.018196683 -0.011518046 0.00063731044 0.020491742
0.013124606 -0.020726174 -0.0022829464 0.016863214 0.02058893 -0.030595597 -0.031222379 -0.019822879
0.001697692 -0.015542632 -0.032902423 -0.01933106 -0.028617665 -0.019267557 0.018739728 0.00314318
0.0052276007 0.00066403847 -0.017436204 -0.00074275595 -0.007325002 -0.014226491 0.00095504994 0.004214581
-0.017472042 -0.006334536 -0.02101668 -0.006172425 -0.019133579 -0.028814891 0.0038430768 -0.0027298843
0.008608612 -0.017348563 0.0076467087 0.010530097 0.027629104 0.029538253 0.021987703 -0.010486978
0.021517936 -0.015451237 0.028358875 0.034117814 0.029503213 0.002348523 0.0066616223 0.011063098
0.00610398 0.005616395 0.03568434 -0.019969583 0.015254059 -0.024953336 -0.0046799947 -0.0079372125
0.0015030259 0.009682337 -0.03131688 0.024526753 0.022672968 -0.00128483 0.007245221 0.0042188177
0.026338553 -5.9898266e-05 0.008246697 -0.00016767479 -0.003304951 -0.01504093 0.009374953 0.0022715426
-0.0042154808 0.032272946 0.0094901165 0.019438049 -0.028993288 0.002466993 -8.566987e-05 -0.015768705
0.0026507464 0.01513502 -0.0045091673 0.0041806144 0.017434364 -0.02128109 -0.004026907 -0.0032369883
-0.022451278 0.0013596773 -0.0071086907 -0.0070456495 0.031136222 0.025444023 -0.022374555 0.0146925645
0.0011806483 0.0046845423 0.013627691 -0.0135350665 0.016822636 0.0045561325 -0.0031146416 -0.018667342
0.014512671 -0.0063873436 0.02681879 0.012855999 -0.00946263 0.00049451704 -0.032977592 0.02486594
0.008766274 -0.019612134 0.02758355 0.032117806 -0.008169186 -0.008142095 0.019764531 0.013826647
-0.010672679 -0.005252881 -0.003856178 0.029314324 -0.01756108 0.006781815 0.025618302 -0.005646922
0.009150261 0.0067699826 0.012710777 0.00922854 -0.006165561 0.021177469 -0.007224166 -0.028805103
0.0049360762 0.035065386 -0.016870407 -0.0105524445 0.017333984 0.010495181 0.010071004 -0.0072273687
-0.001547088 0.019377267 -0.01968332 0.0066374545 -0.028238509 -0.018652014 -0.020452568 -0.022248654
-0.012379214 -0.0066840574 -0.026305364 -0.0055887965 0.012516252 -0.010007485 -0.031615876 0.028336534
-0.0087034805 -0.0077594044 -0.0046075233 0.031264637 -0.0046956716 -0.009856919 -0.019283142 -0.022344876
-0.0004704909 0.022784794 0.029490521 -0.013336007 0.002812355 -0.007599892 -0.012559592 0.015594918
0.020115785 0.010770824 0.017454743 -0.0044187214 0.0056469124 0.013107554 0.032756906 0.008123384
0.020295884 0.021910295 0.016089533 0.011811528 -0.025211979 0.015911348 -0.017399084 -0.00019798001
-0.0069650994 0.0122262025 0.0013871541 -0.01467991 -0.01649522 -0.01398469 -0.021557014 0.017247709
0.007450333 0.004242509 0.01831722 -0.0019183216 -0.001117544 -0.014884209 -0.0020405776 -0.029215293
0.013525943 0.0056755734 -0.002316396 -0.00787954 0.030007552 -0.017370908 0.008760141 -0.013760531

fc1.bias f4 [32]
00000000: 5fbe a3bc 71ca 053d 5b18 eabc 650f b4bc
00000010: 5f07 f8bb 1e4f e5bb a450 f33b 7995 9bbc
00000020: 007d 9d3c 1578 463c 5dca fe3c 715a 40bb
00000030: 04d3 1d3c 78f4 d1bc 8241 06bd 37f3 693b
00000040: 1475 d83b c4e9 febb e448 50bc e10a 82bc
00000050: c9a1 70bc 6da5 ae3b de17 bfbc 1a60 e23c
00000060: 39f1 063d a6a4 8bbc fa50 d2bc 80d6 04bc
00000070: 5515 9f3a c600 073d db7b c2bc 5bc4 da3c
-0.019988237 0.032663766 -0.028576067 -0.021979997 -0.007569238 -0.006997957 0.0074253846 -0.018992173
0.019224644 0.012113591 0.031102354 -0.0029350782 0.00963283 -0.025629267 -0.032777317 0.0035697946
0.0066057537 -0.007779332 -0.012712691 -0.015874328 -0.01468701 0.005329779 -0.02332681 0.027633715
0.03294489 -0.017046284 -0.025673378 -0.008107781 0.0012137095 0.032959722 -0.0237407 0.026704958

fc2.weight f4 [2, 32]
00000000: 54d3 a0ba a8ec f2bd 6b07 c73c 989d cb3d
00000010: 8184 55bd 4f3a f5bc 87f7 0bbe 24e3 dcbd
00000020: 7340 c93d 3342 09be d2ff 0abc 44e7 0fbe
00000030: 9df0 cabd 63ba 693d c789 f43d 1caf 54bc
00000040: b289 e83d d778 f4bd 1279 f63c 4def a7bd
00000050: 756f ddbd a425 73bc b0a0 44bd 3061 193e
00000060: 07c0 85bd fa90 d4bc 2f5e 973d 4829 95bc
00000070: 80bf fabd d958 903c 9d29 11be 6579 d4bd
00000080: a3ec 81bd c009 013d bcc9 5d3c ec95 e13d
00000090: a815 a1bd 3700 073e 7d19 a5bc cc29 0cbe
000000a0: a091 fb3d aecc b3bd 982a 953d 46f0 0ebe
000000b0: 687a c43d 2c7b dabd fada cc3c 1e2b 2b3d
000000c0: dc6b b23d 00fa fbbd a3d3 d23d 7136 abbd
000000d0: fd07 d8bd 63c1 d43d fb06 0ebd 70a1 1c3e
000000e0: ee75 89bc 38e2 f0bc 090f 703d 746b ad3d
000000f0: 88c0 9cbd d1a9 cd3d 5cac 11be ed9e e03d
-0.0012270012 -0.11861545 0.02429553 0.09942168 -0.05212832 -0.02993503 -0.13668643 -0.10785511
0.09826746 -0.13404159 -0.008483844 -0.14053065 -0.099091746 0.057062518 0.119403414 -0.012981202
0.11354388 -0.11937111 0.030087028 -0.0819994 -0.10812274 -0.014840517 -0.048004806 0.1497848
-0.06530767 -0.025948036 0.07391011 -0.018208161 -0.12243557 0.01762049 -0.1417603 -0.10374717
-0.06343963 0.03150344 0.013536867 0.110149235 -0.07865459 0.13183676 -0.020153755 -0.13687819
0.12283635 -0.08779274 0.07283515 -0.13958845 0.0959366 -0.106680244 0.02500676 0.041789167
0.08711979 -0.12303543 0.10294273 -0.08359993 -0.10548399 0.10388448 -0.034674626 0.15295959
-0.016779866 -0.029404745 0.05860809 0.08467761 -0.0765391 0.100421555 -0.14225906 0.10967813

fc2.bias f4 [2]
00000000: 8c3b d4bd 9a52 dcbd
-0.1036292 -0.107579425

exp_avg f4 [16, 1, 5, 5]
00000000: 1f55 9a36 0134 d131 1a2c 5836 96af 89b5
00000010: e027 b7b8 285b 8bac 4448 8eaf f7e5 8e37
00000020: 6901 10b8 c1cd 68ba fc04 962b 5fe5 bf33
00000030: eed7 1d38 04f0 21b6 12af 6fba cbbd c932
00000040: db86 ed37 c3d6 0036 3be5 e9b9 3ae8 80ba
00000050: dd41 3739 be61 9a39 9ffb b139 9d7a a9b9
00000060: 529e b4b9 4b51 bcb8 9711 4f39 4a7d 663a
00000070: 14c9 073a 3196 9238 1fd8 1aba 225a 0eba
00000080: 9b1c d4b8 d36e a636 e180 30b6 4df1 1fba
00000090: 9450 22ba 2504 7bb9 79cb 01b7 1603 21b4
000000a0: 7d22 10ba f01b 52ba 0dcf 54b9 93f6 9ab7
000000b0: 2a3e 41b5 57b4 e6b9 1b71 1bba 9f48 05b9
000000c0: 5ee4 0537 f8dd 2735 6478 a139 1085 2ab9
000000d0: 6d27 25b8 b983 c8b8 e11c 15b9 0c76 5939
000000e0: 3c9b 8638 31ed 3238 0d6b 2eb8 c801 36b8
000000f0: 25e6 a539 046b be38 768f 8b38 1222 8fb8
00000100: 2ad0 70b8 a361 4437 ccc0 6935 73b1 2cb9
00000110: 4a93 a838 6981 123a cae1 6bb8 40d5 62b7
00000120: 672c c238 4435 9539 4bc0 383a 456b e63a
00000130: b6d3 a53a d071 253a f20b 9139 194b cdb8
00000140: f5db c13a a435 a33a a855 483a c778 b439
00000150: 9575 1e38 3333 b73a 439e 8e3a 910b 193a
00000160: 81db ba38 27d6 6037 a2b1 6f3a 2be8 bf39
00000170: fb63 af38 c035 b6b4 b4c7 35b8 1985 203a
00000180: d58d a239 5a8d 79b6 0bae f4b4 1f18 8938
00000190: 6471 113a 8e46 a33a 32a2 a53a 8aaa bc3a
000001a0: d975 c73a 46da ab3a cf9d ab3a 4457 953a
000001b0: 35d4 b83a 9198 d43a dd32 b93a 734e 863a
000001c0: 2a17 8b3a 781f ab3a dc2d ca3a ae62 a23a
000001d0: fb9a 623a 5212 9a3a 97c3 a93a 21c8 db3a
000001e0: 5cdc 973a a348 393a f5a6 723a 13b5 a93a
000001f0: e1d5 df3a 4e09 3b39 3606 abb9 9a2d 4ab9
00000200: ff86 ba39 1cc9 663a 4849 dfb9 f97c f4b9
00000210: dc80 44b9 1113 6fb9 d5a3 273a 9c00 3aba
00000220: dc59 69ba 093d 05ba 79bb 53ba d709 0d3a
00000230: 0c92 54ba f6c2 66ba 4670 08ba 1966 5eb8
00000240: 9359 603a 2be4 66ba 6168 75ba 0db3 21ba
00000250: 561d 8939 3d68 af3a 4f14 0b3a 6cfe c639
00000260: 1a82 fcb5 45bc bcb9 2c18 10b7 ac97 003a
00000270: c91e bb39 cf15 0db9 27ef bbb9 fb8f ecb8
00000280: ef14 9cb8 5a85 13ba 9bd0 3fba 3101 04b9
00000290: 058d 82b7 7ff6 21b8 bd5c 11ba aa57 45ba
000002a0: b465 2ab9 2874 13b7 51de bcb9 5bec 90ba
000002b0: 91b1 3aba 5218 1bb9 9f79 0fb7 25fa 383a
000002c0: 4115 9639 ffd4 6c39 dd28 6438 83cc c738
000002d0: d67b 183a 604f 9439 d484 dd38 1bcf 1339
000002e0: f2a5 fc39 25e5 f639 15e6 8639 e848 3e39
000002f0: a00d 7439 b55d da39 a6d7 f839 0663 8939
00000300: 1fa0 4c39 90db 5939 4191 e439 6e69 2fb9
00000310: 7876 91b8 0978 44b8 9abb e3b7 a895 033a
00000320: 9d07 b5ba e9b7 15ba a8c8 7f38 fb94 b339
00000330: f678 4d3a 3e9f 29ba 944e f7b9 6136 0e37
00000340: 50bf 1239 36b3 3e3a e38d 1cba 0c28 28ba
00000350: 885e 54b9 b79c 1fb9 5a3a d439 1cde 49ba
00000360: c6cc 20ba fe51 aab9 d68f 91b9 1ab7 f7b7
00000370: 1ae2 52ba 1024 21ba c2cd 9eb9 6a17 d4b9
00000380: 3b4d 17b9 5605 8338 13a8 ed37 72e4 e837
00000390: 0a1b 0937 2df1 3438 41ec a437 8d41 3b37
000003a0: 126b ad36 170d 2db6 afb7 f937 0d1c 2237
000003b0: b7c4 9e37 e4e3 4db8 2991 67b8 97fb f8b7
000003c0: edbd 0137 0593 1d35 4ac1 ebb7 931d 96b8
000003d0: 4427 0ab8 cea4 2839 6d41 5c39 06fe e738
000003e0: b5d7 0337 8d60 4237 c24b 003a c565 623a
000003f0: cd2c 703a aa6d 693a b94a 8f3a 5689 113a
4.599467e-06 6.0886127e-09 3.2212179e-06 -1.0258398e-06 -8.733547e-05 -3.960738e-12 -2.5880997e-10 1.7034805e-05
-3.433359e-05 -0.00088807574 1.0659524e-12 8.935853e-08 3.7632817e-05 -2.4130577e-06 -0.0009143214 2.3485788e-08
2.8315399e-05 1.9198494e-06 -0.00044612013 -0.0009834834 0.00017476776 0.00029445993 0.00033947543 -0.00032325546
-0.00034450233 -8.9796806e-05 0.00019747611 0.0008792473 0.0005179804 6.989798e-05 -0.00059068383 -0.0005430301
-0.00010114276 4.960087e-06 -2.630106e-06 -0.0006101325 -0.00061918166 -0.0002393877 -7.736374e-06 -1.4995416e-07
-0.0005498303 -0.0008015027 -0.00020295028 -1.847305e-05 -7.1988563e-07 -0.00044003382 -0.0005929635 -0.00012710922
7.980589e-06 6.2535355e-07 0.0003079801 -0.00016262033 -3.9375784e-05 -9.5612784e-05 -0.00014220506 0.00020738709
6.4185326e-05 4.265941e-05 -4.158453e-05 -4.339384e-05 0.00031642723 9.079839e-05 6.654758e-05 -6.8251175e-05
-5.7414327e-05 1.1705243e-05 8.707982e-07 -0.00016469303 8.038299e-05 0.00055887416 -5.623865e-05 -1.3520301e-05
9.2589115e-05 0.0002845918 0.0007047697 0.0017579576 0.0012651596 0.000631121 0.00027665455 -9.78915e-05
0.0014790284 0.0012451899 0.00076421583 0.00034422262 3.7779642e-05 0.001397705 0.0010880906 0.00058382103
8.910057e-05 1.3401302e-05 0.0009143596 0.00036603338 8.363273e-05 -3.393925e-07 -4.333975e-05 0.0006123349
0.0003100472 -3.7186169e-06 -4.5575175e-07 6.537162e-05 0.00055482076 0.001245694 0.0012636839 0.0014394086
0.0015217616 0.0013111315 0.0013093295 0.0011393805 0.0014101329 0.0016219785 0.0014129538 0.0010246768
0.0010611762 0.0013055643 0.0015425044 0.0012389028 0.000864431 0.0011754727 0.0012951967 0.0016768017
0.0011586058 0.00070680137 0.0009256446 0.0012947641 0.0017077291 0.00017837176 -0.0003262029 -0.00019281209
0.00035577264 0.00088037713 -0.00042588473 -0.00046632419 -0.0001874002 -0.00022799919 0.00063949573 -0.0007095428
-0.0008901635 -0.00050826423 -0.0008076947 0.00053801894 -0.0008108921 -0.0008802855 -0.00052047183 -5.302401e-05
0.00085582695 -0.00088078034 -0.0009361562 -0.0006168343 0.00026152533 0.0013382506 0.00053054554 0.00037955062
-1.8813328e-06 -0.00035998426 -8.588697e-06 0.00049054134 0.00035690356 -0.00013454932 -0.00035845602 -0.000112801754
-7.442559e-05 -0.0005627476 -0.00073171564 -0.00012588945 -1.5562875e-05 -3.861496e-05 -0.000554513 -0.00075280166
-0.00016250351 -8.7889275e-06 -0.00036023793 -0.0011056768 -0.00071217964 -0.00014791012 -8.551781e-06 0.00070563174
0.00028626065 0.00022586061 5.4397493e-05 9.527153e-05 0.0005816793 0.000282879 0.00010562842 0.00014096165
0.00048188824 0.00047091502 0.00025729896 0.00018146972 0.00023274729 0.00041650017 0.00047462917 0.00026204454
0.00019514606 0.00020776526 0.0004359577 -0.00016728576 -6.936205e-05 -4.6841833e-05 -2.7147868e-05 0.0005019554
-0.0013811473 -0.00057113037 6.0983613e-05 0.0003425254 0.0007838154 -0.00064705673 -0.00047170056 8.476521e-06
0.00013994914 0.00072746293 -0.00059720705 -0.0006414659 -0.00020253111 -0.00015221802 0.00040479266 -0.00077006384
-0.0006134029 -0.00032486016 -0.0002776372 -2.9529958e-05 -0.0008044556 -0.00061470363 -0.0003028941 -0.00040453236
-0.00014429253 6.247561e-05 2.8330867e-05 2.7762933e-05 8.172132e-06 4.3139957e-05 1.9660338e-05 1.1161331e-05
5.1682664e-06 -2.5786628e-06 2.9768647e-05 9.6624835e-06 1.892667e-05 -4.908805e-05 -5.5209883e-05 -2.968106e-05
7.73322e-06 5.8701e-07 -2.810419e-05 -7.158066e-05 -3.2938333e-05 0.00016083123 0.00021005208 0.00011062254
7.858432e-06 1.1585781e-05 0.00048941013 0.00086363807 0.0009161949 0.0008904586 0.0010932303 0.00055517757

exp_avg_sq f4 [16, 1, 5, 5]
00000000: 1b27 ab35 2d70 e135 6e44 1037 8494 1f39
00000010: a237 ca39 6191 8c34 3bd1 c733 bfdf e637
00000020: 3206 c239 40bd 373a 07be 7c33 35a8 9735
00000030: 0dd2 8e38 5494 073a 2783 6d3a 6f73 e431
00000040: 1962 2737 3bfa 1539 5ad9 0d3a 26dd a03a
00000050: 5b27 1837 101b d838 70ef a439 4053 983a
00000060: bbba d33a 62b3 0e3b b457 fc3a c684 863a
00000070: 0c8e b639 43ff 7838 e8c3 2e3b 8d07 de3a
00000080: c665 113a e11a cc38 2516 3737 857a 4a3b
00000090: ddfd e13a d1a0 a039 cb74 c437 9184 3236
000000a0: bfdc 2d3b a243 b63a 6e91 2639 8d9e 8237
000000b0: b0a9 6936 e022 ff3a 390e 953a 7a21 2439
000000c0: 296b f736 de05 5d37 4095 a53b 33a9 3c3a
000000d0: a045 9e39 e744 4a3a 36de b03a 7e2f 583b
000000e0: 7323 c139 c393 f139 7bef 8e3a d823 9c3a
000000f0: 066f 053b 7970 8839 5433 163a c3d1 ae3a
00000100: b6fc 993a 518b 4e3a ae4c b339 d1c2 7c3a
00000110: 4290 c03a a864 ed3a 5f51 ef39 f6e6 fc39
00000120: b90f bf3a 2837 063b 49ac 0e3b 70bf 393b
00000130: 6011 3d3b c93b f23a 746a d03a 3a3e 9d3a
00000140: 12ba 283b a01e 333b 8b92 d73a daeb 663a
00000150: 98e7 da39 355d 173b bc0c 0e3b 035e ad3a
00000160: aff7 ec39 c45c 2339 8e2e d93a 1753 a03a
00000170: e53e 073a 465d 5939 cecd fa38 a170 883a
00000180: ca8e 413a c00b d639 0b5d 6a39 561e 053a
00000190: e937 783b d15d e63b dac6 013c a6c9 fb3b
000001a0: f691 b83b b815 b23b 97f9 033c 0c20 0b3c
000001b0: b2de ce3b a37f ae3b 76b0 d13b 43e6 f23b
000001c0: d311 e13b fccc 833b 75e4 863b 392d d73b
000001d0: e20a cd3b c7b1 8c3b 4620 253b dba6 3a3b
000001e0: b12e dc3b 94cf ac3b d8e5 2f3b f84a 343b
000001f0: 9dd2 423b 548a 043b 9b55 953a 1cdc aa3a
00000200: ea6f 073b d044 1c3b 0fdf d53a bf10 a73a
00000210: e0a9 f03a 67ca 153b eae0 1c3b e288 053b
00000220: b64b cc3a c55e 063b c3ea 0a3b 65d8 1f3b
00000230: 1360 343b dce9 023b b749 003b 36e9 053b
00000240: cec8 063b 5c36 2e3b 1f97 123b 88b9 003b
00000250: f498 103b 2fc2 053b 694c 263b 71b1 373b
00000260: 1c5d 0c3b 9244 dd3a 8fad af3a 7fcc 373b
00000270: 5cdb 303b 0223 f93a 1f9c b93a b895 493a
00000280: 267f 343b b5ba 2e3b 1842 e83a 767a 7b3a
00000290: dba1 e639 fe2a 403b 35e6 253b 4da2 b93a
000002a0: 7aa9 673a 415b 1d3a fa22 173b 5104 103b
000002b0: 4cc6 8a3a 2200 603a a8b4 4c3a 3c9f 693b
000002c0: 6c80 943a 0d88 a039 e4ad 3438 87bc 8139
000002d0: 14b6 3c3b 5d6f 7e3a 0a42 8039 da46 0439
000002e0: d5c6 323a 1934 0e3b a492 503a 1074 bc39
000002f0: 1dbe f839 170d cd3a 9ef0 053b 4e11 453a
00000300: 1a96 393a 6d86 893a 5153 083b 9b7e ca3a
00000310: a27c 473a fca2 913a f4d4 bd3a 56f6 073b
00000320: fb9c 263b b5d0 a93a 6fce a73a efbb 963a
00000330: fd18 943a 459a c63a de47 f73a 2acb ec3a
00000340: 6bb4 8f3a a90f 933a a5cf d03a a1fc 173b
00000350: 2f39 fa3a 214d 853a 18e7 a03a 4408 ee3a
00000360: 3ce6 133b acdd a83a 12bd 373a 04d0 5c3a
00000370: 9686 e93a 906e 1c3b d20b ac3a 51ec 4d3a
00000380: 7dd0 3b3a 0147 0a3a be28 1239 84b3 0139
00000390: ab2a 1e39 c7d0 1e3a 5aaa 8139 15f1 0039
000003a0: 4263 d838 758f c839 6663 6e3a d840 1e3a
000003b0: 6868 e739 cf5c b139 9080 603a b63e 5d3a
000003c0: 4393 4d3a 7bf9 1e3a 88bc 5a3a c59f 823a
000003d0: d35f 173a 683e 883a aa15 973a ae4e a13a
000003e0: ae1c 523a 69a5 d839 a347 823b 34a3 c53b
000003f0: e338 9d3b a5c5 1a3b 5f32 a43a a86d 8b3b
1.2751874e-06 1.6796454e-06 8.599001e-06 0.00015218748 0.00038569892 2.618281e-07 9.3047184e-08 2.7522326e-05
0.0003700718 0.00070090964 5.884615e-08 1.1299331e-06 6.810213e-05 0.0005171944 0.0009060376 6.6487966e-09
9.976816e-06 0.00014302965 0.0005411111 0.0012272939 9.069069e-06 0.000103047234 0.00031458912 0.001162149
0.0016153672 0.00217744 0.0019252212 0.0010262958 0.00034819578 5.936554e-05 0.0026667062 0.0016939506
0.00055464765 9.7324846e-05 1.0912806e-05 0.0030895781 0.0017241795 0.00030637396 2.3419407e-05 2.660123e-06
0.002652928 0.0013905654 0.0001588517 1.5571039e-05 3.4818477e-06 0.001946535 0.0011372037 0.0001565273
7.3736487e-06 1.3173993e-05 0.0050531924 0.00071968435 0.00030187983 0.0007715956 0.0013493958 0.0032987292
0.0003683824 0.00046077193 0.0010905111 0.0011912538 0.0020360365 0.0002602374 0.00057296944 0.001333766
0.0011748287 0.0007879036 0.0003419867 0.0009642067 0.001469143 0.0018111663 0.00045646259 0.00048237265
0.0014576829 0.0020479653 0.002177017 0.0028342865 0.0028849468 0.0018480952 0.0015900866 0.0011996694
0.0025745672 0.0027331486 0.0016446871 0.00088089483 0.0004175275 0.0023096327 0.002167507 0.001322687
0.00045197966 0.00015579449 0.001656966 0.0012231794 0.00051592133 0.0002072948 0.00011959263 0.0010409543
0.0007383643 0.00040826015 0.0002235064 0.0005078068 0.0037875122 0.0070302268 0.007920945 0.0076839505
0.0056326343 0.005434718 0.008055112 0.008491527 0.0063131684 0.005325274 0.0063992096 0.0074127032
0.00686858 0.004022239 0.0041165897 0.0065666703 0.006257401 0.0042936536 0.0025196238 0.0028480801
0.0067194332 0.0052737687 0.0026839878 0.0027510505 0.0029727586 0.0020224052 0.001139331 0.0013035568
0.0020666071 0.0023844726 0.0016317087 0.001274608 0.0018361174 0.0022856237 0.002393777 0.0020375778
0.0015586528 0.0020503264 0.0021197058 0.0024390456 0.0027523085 0.0019975817 0.0019575187 0.0020433194
0.0020566466 0.0026582694 0.0022367907 0.0019641835 0.0022063823 0.0020409932 0.0025375134 0.0028029347
0.0021417802 0.0016881397 0.0013403165 0.0028045473 0.0026986217 0.0019007626 0.0014160908 0.00076898513
0.0027541607 0.002666158 0.0017719893 0.0009593138 0.0004398961 0.00293225 0.0025314216 0.0014162749
0.00088372047 0.00060026726 0.002306162 0.002197523 0.0010587662 0.00085449417 0.00078089023 0.003564789
0.0011329777 0.00030618944 4.3077293e-05 0.0002474526 0.002879505 0.00097059255 0.00024463265 0.00012614895
0.00068197894 0.0021698533 0.00079564215 0.00035944628 0.00047443892 0.001564416 0.0020437608 0.0007517532
0.0007079557 0.0010492333 0.0020801614 0.0015449108 0.00076098193 0.0011111195 0.0014483021 0.0020746193
0.0025423157 0.0012955876 0.0012802611 0.00115001 0.0011298951 0.0015152177 0.0018866023 0.0018065919
0.0010963803 0.0011219877 0.0015931024 0.002319135 0.0019090528 0.0010170081 0.0012275903 0.0018160422
0.002256765 0.0012883446 0.00070090697 0.0008423331 0.0017816599 0.0023869611 0.0013126081 0.0007855343
0.0007164551 0.00052748626 0.00013938823 0.00012369273 0.00015083949 0.0006058332 0.0002473172 0.00012296841
0.00010318171 0.00038253856 0.0009093791 0.0006036884 0.00044137542 0.0003382922 0.0008564079 0.00084398256
0.0007842073 0.0006064397 0.00083441334 0.0009965828 0.0005774472 0.0010394575 0.0011526842 0.0012306774
0.0008015138 0.0004132197 0.003975825 0.006031418 0.004798041 0.002361634 0.0012527219 0.0042550154

exp_avg f4 [16]
00000000: 066a edb6 e5ef 6035 77e0 6336 e272 9936
00000010: 2abf 4637 576d 04b7 6d02 a335 7238 8636
00000020: 977f b6b7 f398 d5b7 27e9 38b7 55bd 2a36
00000030: 75cf 1237 a2fc 55b6 cf4f 41b7 c034 5f36
-7.075493e-06 8.3795595e-07 3.3956292e-06 4.5731294e-06 1.18462285e-05 -7.893271e-06 1.2145152e-06 4.0000823e-06
-2.1755504e-05 -2.5462801e-05 -1.102154e-05 2.544218e-06 8.7505805e-06 -3.1886525e-06 -1.1522278e-05 3.3260294e-06

exp_avg_sq f4 [16]
00000000: 96ca 4d35 e546 8c33 eb09 2d34 8de7 0b34
00000010: 4b07 2935 2e2b 1935 e61f c733 0807 0534
00000020: 4db6 0836 6cb4 0436 f3c6 5136 7c1b 6633
00000030: 8dde 9f34 ff6d cd34 f8f1 9f35 8017 b535
7.666325e-07 6.532154e-08 1.6115489e-07 1.3029621e-07 6.296802e-07 5.7059776e-07 9.272462e-08 1.2389148e-07
2.0371692e-06 1.9774552e-06 3.125923e-06 5.3576045e-08 2.9777985e-07 3.8264258e-07 1.1916845e-06 1.349239e-06

exp_avg f4 [32, 16, 5, 5]
00000000: 3ee3 0337 385a 5836 5d0a 28b6 f902 b938
00000010: a31b ac38 6e8f a0b5 8efe a3b5 338b 80b5
00000020: dc3e 4836 9412 2337 7423 54b6 4a50 16b8
00000030: 04b9 3336 4c4a 6838 b1bb 9436 289f 90b8
00000040: fa55 9ab8 487c bcb7 74c5 7f36 fec3 f1b6
00000050: ac2b 05b5 36e2 dbb7 c27c 8cb5 283b 1037
00000060: 7fe6 1237 8167 ff35 f4a4 bcb5 0524 2cb5
00000070: 9cc9 b6b2 53df edb7 6e7e 0439 ce57 c2b6
00000080: 7e6f c530 f053 01b5 0fd0 27b8 fa46 4437
00000090: 109a 0137 e64c f4b6 7648 43b8 06af 63b7
000000a0: 1d30 9b38 4e06 d7b6 a0f4 cfb5 6477 2bb8
000000b0: 3a2f b8b9 52ac a737 0183 f0b6 d890 2bb7
000000c0: d3fd bdb6 e62c e8b9 f25d b433 ca36 64b9
000000d0: 6f8b b637 ecfd 9a37 8a15 6536 88a9 3037
000000e0: a300 98b9 4732 b938 e10c 1d39 8035 8b37
000000f0: 9916 8f37 2db5 8bb9 b48e 8b38 d93e 1e38
00000100: 3c51 e0b7 1143 07b9 ff3c 04b8 54e2 4238
00000110: f228 d336 6192 8836 fdd2 fc37 a626 3ab8
00000120: fffb 3937 9f3a 9e38 3ed9 05b8 0880 a9b7
00000130: 3f81 07b8 1dbc 8137 e0ce 1836 0ad9 32b7
00000140: 0db6 09b8 df97 3cb8 3e2a 8437 0bf2 17b5
00000150: 8108 0635 1456 d3b7 2efa 26b6 feae 8337
00000160: 5c22 5935 bfd3 64b7 87df 1837 d0e9 9f37
00000170: 8d6e fc36 5774 3137 0352 0035 5a55 98b7
00000180: 51ad c2b7 7104 49b6 19e7 0838 4b0b cdb9
00000190: 7ece 2e37 64ca 8bb8 542f ccb9 5b87 d4b9
000001a0: 3f56 88b7 9421 f637 c0b5 82b6 8869 d836
000001b0: 73cf d8b9 d1f2 ca35 ee24 5d38 0033 3db9
000001c0: 27e0 2838 d283 7bb9 67a4 29b9 3619 9ab7
000001d0: 9b99 b1b8 dc4d a1b9 034c 2038 a64f e936
000001e0: 560c 9db9 11a5 bab9 0f1d 6337 8ce2 cab9
000001f0: 026c d538 b065 d937 c9e3 c8b7 c171 56ba
00000200: 36cb fcb5 7369 34ba c566 2e39 becd 43b9
00000210: 0118 31ba 37ee 1fba be4a 3139 4bea c836
00000220: 8847 adb9 51e0 02ba e96f 2537 b886 21b8
00000230: 1056 0437 7da3 c7b9 7536 1338 aa2f 0dba
00000240: cb24 d3b9 4353 1ab7 1e76 10ba ff54 acb8
00000250: ca09 1cba 6fba 2db9 7acf ad37 d4df 8fb6
00000260: 6681 8a34 eb48 c8b7 a2ea 90b7 95b6 24b7
00000270: 90f6 cfb6 751b 9533 db11 aeb7 e40d 87b8
00000280: 6691 2538 a5b9 7737 b0a6 c9b6 973e a3b7
00000290: 206d 2b37 53be 9237 96af b3b5 ea53 92b7
000002a0: 2679 22b9 dcfb 7bba aa66 15b7 daaf 2236
000002b0: 1ec3 5cb9 4b3c 77b9 f689 2cba 7a1c 96b6
000002c0: d90d d1b9 2246 d1b6 63bf 24b7 7b01 11b8
000002d0: 3e5b bd35 7dd7 85b7 2858 3336 f073 1bb7
000002e0: 08fb 4239 00c9 d036 656e 1cb8 06b9 22b8
000002f0: 21a2 a736 669a 1738 e3bf 9a38 024e 8738
00000300: 7976 90b8 3358 ecb7 3c14 1637 c6a2 8b37
00000310: 4267 18b9 23f5 e5b7 2209 15b6 8691 f0b8
00000320: 63f7 0eb8 a32f 7137 3cf2 d0b6 fc41 5db5
00000330: d0ae 9ab6 f836 65b6 d72e 2fb5 5e1f 8937
00000340: 726a abb6 353f ca38 74ed ed35 7447 ab37
00000350: ac9c 0fb6 f376 9937 c961 9737 da12 3c37
00000360: 90f9 bfb6 ca66 ebb8 e2bf 0eb7 09e5 0b37
00000370: 797e 06b9 ede8 9eb8 d59c 27b9 cab4 10b7
00000380: fafa 17b8 29ab b3b5 215e 8934 0b85 7535
00000390: 8238 14b7 b5d9 53b6 de28 aab4 a6ff 9e36
000003a0: f533 ea36 ceb4 e4b5 f9cc 78b5 c4dd 4337
000003b0: 6c05 ed35 bef3 adb5 86f0 aab7 e81a e836
000003c0: 3822 16b7 7881 16b7 f844 d6b8 dd9c b8b8
000003d0: a911 1f34 3398 81b8 74c2 a3b5 68f3 f3b8
000003e0: a65c ebb8 695f 4eb7 4a1e 2f37 f084 7db8
000003f0: ba97 b637 21f6 9b38 dc09 b037 fab7 7e37
7.861117e-06 3.2239022e-06 -2.5039983e-06 8.822041e-05 8.206747e-05 -1.1962672e-06 -1.2218532e-06 -9.577255e-07
2.9838911e-06 9.719883e-06 -3.1611098e-06 -3.5837562e-05 2.6780772e-06 5.5382305e-05 4.432594e-06 -6.8961e-05
-7.3593066e-05 -2.246922e-05 3.8112894e-06 -7.205176e-06 -4.960991e-07 -2.6212172e-05 -1.0467122e-06 8.596842e-06
8.755945e-06 1.9029104e-06 -1.4055099e-06 -6.412741e-07 -2.127927e-08 -2.8356595e-05 0.000126356 -5.7918724e-06
1.4365324e-09 -4.817839e-07 -4.0009672e-05 1.1699036e-05 7.72487e-06 -7.280719e-06 -4.6559107e-05 -1.3571005e-05
7.399938e-05 -6.4082333e-06 -1.5493897e-06 -4.088077e-05 -0.000351304 1.9988194e-05 -7.1678082e-06 -1.0226118e-05
-5.662188e-06 -0.0004428394 8.398992e-08 -0.00021764185 2.176102e-05 1.8476472e-05 3.4136197e-06 1.052989e-05
-0.00028992174 8.830852e-05 0.00014977485 1.6595004e-05 1.7057451e-05 -0.00026647132 6.654617e-05 3.7728667e-05
-2.6740709e-05 -0.00012899587 -3.152806e-05 4.646399e-05 6.2930567e-06 4.0701566e-06 3.013899e-05 -4.438185e-05
1.1085532e-05 7.544946e-05 -3.1911994e-05 -2.020599e-05 -3.2306878e-05 1.5465595e-05 2.2770182e-06 -1.066016e-05
-3.2832893e-05 -4.4964134e-05 1.5755297e-05 -5.66041e-07 4.9931265e-07 -2.5193243e-05 -2.4881551e-06 1.5697904e-05
8.08888e-07 -1.363916e-05 9.11195e-06 1.9063154e-05 7.523055e-06 1.057711e-05 4.780306e-07 -1.8159557e-05
-2.3207309e-05 -2.995392e-06 3.2640153e-05 -0.0003910906 1.0419286e-05 -6.665735e-05 -0.00038945174 -0.0004053664
-1.6252625e-05 2.9341121e-05 -3.8954604e-06 6.449587e-06 -0.00041353292 1.5120842e-06 5.27249e-05 -0.00018043444
4.026308e-05 -0.00023986332 -0.0001617834 -1.836997e-05 -8.468629e-05 -0.00030766323 3.8217764e-05 6.9532134e-06
-0.00029954565 -0.0003559967 1.353702e-05 -0.00038697233 0.000101767495 2.5915768e-05 -2.3947929e-05 -0.0008180403
-1.8834605e-06 -0.0006882168 0.00016632218 -0.00018673294 -0.0006755591 -0.00061008654 0.00016907879 5.9877398e-06
-0.00033050426 -0.0004992532 9.8608225e-06 -3.8510858e-05 7.887851e-06 -0.00038078046 3.509825e-05 -0.00053858256
-0.0004027247 -9.198501e-06 -0.0005510765 -8.217431e-05 -0.00059523864 -0.00016568018 2.071982e-05 -4.287789e-06
2.5798653e-07 -2.3875813e-05 -1.7275397e-05 -9.817672e-06 -6.1977844e-06 6.9433476e-08 -2.0750731e-05 -6.439889e-05
3.947448e-05 1.4765571e-05 -6.009672e-06 -1.946026e-05 1.0217802e-05 1.7493183e-05 -1.3387642e-06 -1.7443632e-05
-0.00015494655 -0.000961242 -8.904995e-06 2.424224e-06 -0.00021053522 -0.00023578216 -0.0006581837 -4.4736635e-06
-0.00039873904 -6.23685e-06 -9.819722e-06 -3.4572073e-05 1.4108152e-06 -1.595518e-05 2.6724392e-06 -9.265714e-06
0.00018594798 6.2222825e-06 -3.729611e-05 -3.8796126e-05 4.995862e-06 3.6145e-05 7.379034e-05 6.451832e-05
-6.888522e-05 -2.8174463e-05 8.945408e-06 1.6645889e-05 -0.00014534316 -2.7413078e-05 -2.2208046e-06 -0.00011471198
-3.4085835e-05 1.4375811e-05 -6.227083e-06 -8.2424935e-07 -4.6099085e-06 -3.4155655e-06 -6.526074e-07 1.634628e-05
-5.108589e-06 9.643884e-05 1.7726984e-06 2.0418061e-05 -2.1399856e-06 1.8294411e-05 1.8046137e-05 1.1210062e-05
-5.7212965e-06 -0.00011224819 -8.508536e-06 8.338372e-06 -0.0001282635 -7.577413e-05 -0.00015984786 -8.625162e-06
-3.6234946e-05 -1.3386353e-06 2.5586726e-07 9.1463215e-07 -8.834644e-06 -3.1568172e-06 -3.1694702e-07 4.7385283e-06
6.979792e-06 -1.7039945e-06 -9.2685474e-07 1.167454e-05 1.7659454e-06 -1.2960443e-06 -2.0377582e-05 6.917271e-06
-8.948664e-06 -8.970841e-06 -0.000102171616 -8.803022e-05 1.4814454e-07 -6.179549e-05 -1.220104e-06 -0.00011632481
-0.0001122293 -1.2300771e-05 1.0437865e-05 -6.044371e-05 2.1766744e-05 7.436821e-05 2.0985426e-05 1.5182415e-05
