dianna/models/geometric_shapes_model.onnx (onnx, 277444 bytes, 8 tensors)

layer1.0.weight f4 [8, 1, 5, 5]
00000000: 0a26 d83d 0345 9dbc 2073 423e 11b9 c4bd
00000010: 8389 f7bd a03a 57be b549 0a3d 89cb 1abe
00000020: 7fcd e43d 59f8 473e 20eb 18be ca2d afbc
00000030: 08da 2dbe 732a a83d 01c9 cf3d 653c 1dbe
00000040: 1a87 073e 133c 39be 336f 133e fbae 0ebe
00000050: ee6b 3e3d 2ae2 7fbe 0038 acbc 7509 153e
00000060: 7c05 d13d 29c6 c83d c7c5 783d 4a37 44be
00000070: 0d12 60be 2737 a6bd 39ad 28be 1843 703d
00000080: 5bdb 853d e718 d8bd ba7f cbbc af08 c13c
00000090: 409f 4dbe 7a68 b3bd b9a4 893b 0211 c23d
000000a0: 34dd 9bbd cfc0 fdbd 5fca 163e fdba 543d
000000b0: f292 8c3d 2460 533d 7462 4e3e 4c32 0b3d
000000c0: 757a 07be 3758 353e 08a4 a63d 216e f4bd
000000d0: fe64 4dbe 313e 4ebe 1ab6 bc3d 88ac 1b3d
000000e0: 7165 3dbe 0701 c33d 39fc 1c3e acb2 1cbe
000000f0: 2825 823d 27fb 833d 1d91 403e 8a66 983d
00000100: 2e48 e73c c995 903c 40e5 363e 301f 3b3e
00000110: 162a efbd c3c3 32be 9762 e53d 1771 2b3e
00000120: 29fe 9dbb ad54 7fbd b76e 1dbe b42a dfbd
00000130: 5558 923d f563 1fbe dd4a 7dbe a33b 96bd
00000140: 9610 94bd a553 3d3e 437d 3cbe 9703 08be
00000150: 13c4 f6bd 82bf 943e 5ae3 d53d ddc1 72bd
00000160: 7ac8 d53d 0413 1abe 5425 973e 8ac4 aebc
00000170: ad21 c83c f2ba 503e 447e 39bd e6f0 17bd
00000180: bc4c 363e 3d91 e8bc b94e c33d 2ffa 2fbe
00000190: b8a1 243d f57d 0dbe c8d7 d5bd cbc1 fcbc
000001a0: 0dba 07be 3ebf 70bd bff3 5ebe 22d7 d23d
000001b0: 4e42 49be 8c0c a13c edde 84bd 2018 e3bd
000001c0: 712e cb3d a26a ad3d b90f 273d 4f6a c03c
000001d0: 3f49 303e 4782 213e 8ac8 ed3d 9ce0 b8bd
000001e0: ee92 263e ae8f 0dbd afef 8abc b355 76bc
000001f0: fee3 1c3e a82e fb3d c2c9 4d3c 6580 743e
00000200: 7d40 75b9 de1b 623c 8470 c93c 0a23 633e
00000210: ecab ed3c aa00 e53c 5e4e 1abe 2961 07bd
00000220: 5b70 6cbd bd74 04be 091c 3abe d704 2a3e
00000230: e60f 3d3e 1924 32be cb58 56be dcc5 403e
00000240: e0bc e0bd e319 e8bd d300 cb3c 441a ec3d
00000250: c774 26be 30c6 2fbd 5b53 25be 1d57 bbbd
00000260: 2c04 073e 603d 703d e27c e13d 9e0e 38bd
00000270: b9df 96bc 2607 3e3d 7026 263e f4a8 383e
00000280: 5ff9 61be e262 3ebe 818d e93c 77da e63d
00000290: 635e 043e eed0 c6bd d931 18be 4bba febd
000002a0: 661a eb3d 98ed 263d edd4 923d aa4c ddbd
000002b0: 4ada 323d 8da0 cebd 7739 8c3d c2b5 49bd
000002c0: 9552 6bbe 143c 843b 5b13 863d 8374 8fbe
000002d0: 900a 173e 719c 013e 7c32 533c 5228 a2bd
000002e0: b225 88bd 0b62 e53d 6ac4 49bd f6ce 003e
000002f0: 915b 3dbe 6c5f ffba c6cd 123e 071a 1e3e
00000300: aee4 89bd 3b1f 0cbe e10a 0b3d 554d e93d
00000310: e201 cfbd f0a7 983c 45c6 0b3e 64ab 6ebe
0.105541304 -0.019197946 0.18989229 -0.09605611 -0.12086775 -0.21018457 0.0337617 -0.15116705
0.11172008 0.19528331 -0.14933443 -0.021384139 -0.16977704 0.082112215 0.1014576 -0.1535507
0.13235131 -0.18089323 0.14397888 -0.13933937 0.04648965 -0.24988618 -0.021022797 0.14554389
0.10206124 0.09803421 0.06073549 -0.19161716 -0.21881886 -0.08115988 -0.16472329 0.058657736
0.06535979 -0.10551625 -0.024841178 0.023563711 -0.2008028 -0.08760162 0.0042005447 0.094759
-0.076105505 -0.12390291 0.14725636 0.05193614 0.06863965 0.05160536 0.20154744 0.033983514
-0.13230307 0.17709433 0.08136755 -0.11935068 -0.20058057 -0.20140912 0.092144206 0.038006335
-0.18495728 0.0952168 0.1533059 -0.15302533 0.06354743 0.06444388 0.18805356 0.07441433
0.02823266 0.017649548 0.1786089 0.18273616 -0.11677949 -0.1745749 0.11200445 0.16742359
-0.004821558 -0.062336612 -0.15374266 -0.10896817 0.07145754 -0.15565474 -0.2473559 -0.073355936
-0.07229726 0.18488939 -0.18407159 -0.1328262 -0.12049117 0.2905236 0.104437545 -0.059266914
0.104386285 -0.15046316 0.29520667 -0.021333952 0.02443012 0.20383814 -0.045286432 -0.037094973
0.1780271 -0.028389568 0.095364995 -0.17185281 0.04019329 -0.1381758 -0.10441548 -0.030854126
-0.13254566 -0.058776133 -0.2177267 0.102949396 -0.196542 0.019659303 -0.06487832 -0.11088586
0.09920967 0.08467604 0.04078648 0.023488192 0.17215441 0.15772353 0.116105154 -0.09027216
0.16266987 -0.03456085 -0.016959993 -0.015035081 0.15321347 0.12264758 0.01256031 0.23877104
-0.00023389045 0.013800589 0.024589784 0.22181335 0.029012643 0.027954418 -0.15068957 -0.033051644
-0.057724338 -0.12935157 -0.18174757 0.16603409 0.18463096 -0.17396583 -0.2093231 0.18825477
-0.10973525 -0.113330625 0.024780666 0.11528447 -0.16255485 -0.042913616 -0.16145079 -0.09147475
0.13185185 0.05865228 0.11010148 -0.044935815 -0.018417226 0.046393536 0.162256 0.180332
-0.22067784 -0.18592408 0.028509857 0.112721376 0.1292663 -0.09707819 -0.14862765 -0.12437876
0.114796445 0.04075393 0.071695186 -0.10805638 0.043665208 -0.100892164 0.06846898 -0.049245603
-0.22980721 0.004035482 0.065466605 -0.2801858 0.14750123 0.12657334 0.012890454 -0.07917847
-0.06647815 0.11200341 -0.04925958 0.1257895 -0.18491961 -0.0019483394 0.14336309 0.15439616
-0.0673307 -0.13683788 0.03394592 0.11391703 -0.10107781 0.018634766 0.13649853 -0.23307568

layer1.0.bias f4 [8]
00000000: e0f9 05bc b243 33bc f319 14be ae75 213c
00000010: 9ea8 db3c 6bd9 383b aabb 313a 5d56 4c3d
-0.008177251 -0.010941433 -0.14463024 0.009854717 0.026813801 0.0028205763 0.0006779978 0.04988705

layer2.0.weight f4 [16, 8, 5, 5]
00000000: b25a 6e3c a169 003e 5bd4 7f3e 7cdc 323e
00000010: eed0 163d cf9b a4bd 7a57 2e3e 6019 853e
00000020: 38df b03e 15a5 b73d 85e0 26be 045a 89bb
00000030: 5f91 183e 4470 b83e 2e16 4f3e 758e 22be
00000040: d850 dabd a257 d53d 1e2c b23e f98d 733e
00000050: 6072 21be d783 29be 3d52 1abd a588 ba3d
00000060: 901f 263e 7ef7 3bbe 937e 60be fba3 82be
00000070: 286d 2abe e42d d8bd d60a 51be 2aa5 7dbe
00000080: b2ca 89be 426a 35be de07 3fbe 1282 fabd
00000090: 9f2f 78be 5bf5 77be ebb3 87be 3287 8bbe
000000a0: 556f c2bd 781a efbd 0147 29be edd9 89be
000000b0: 64d7 98be adb8 df3b f979 12bd 1c67 0bbe
000000c0: 07ce 3abe b857 83be e638 1abd f12e aabc
000000d0: aaf3 ed3b ec63 2a3d 3116 d73d 6c59 c7bb
000000e0: 1adc 8bbd 372c efbd 13bc 07bd 2355 c13c
000000f0: 699d dd3c c926 f3bc 6e52 f6bd 7397 c2bd
00000100: 3cc0 76bc ae98 7b3d 48dc 55bd 96b1 f1bd
00000110: 1177 1bbe d926 50bd 07ef d03d 7db6 9bbc
00000120: d7b7 c4bd 44f9 fbbd 0b59 79bd 244d 3a3c
00000130: c7f0 36be 9ccd 3ebe 3764 30bc 54ad d93d
00000140: 870d 833e 209f 62bc 3d79 57be a636 36be
00000150: 81b8 153d 2ab0 253e 6b0f 0b3e a2d5 07be
00000160: 88fe 80be 630f aa3a 5cdb 763e 4845 663e
00000170: 91d6 8e3d f86a 22be 41c8 1dbe 43ff 713e
00000180: 522a 333e c102 133e 9982 363b f768 98bd
00000190: 7f9b 8bbd a337 9fbd b451 aebd b6a0 8fbd
000001a0: 9646 c7bc 2a04 e8bc 1888 a0bd 6a52 b4bd
000001b0: 7ac9 92bd 2364 6fbd 9575 e5bc 07da 44bd
000001c0: 5db9 a5bd 3b77 acbd 5522 cdbd 3a3c 41bc
000001d0: c2af 06bd 473a 4cbd 54ee 73bd a60b bfbd
000001e0: 22c9 413b 5b08 9f3c b1ae 413c 3744 11bd
000001f0: f35f 24bd af20 c9bc 1514 29bd ff1f 88bd
00000200: 075e 27be 171e ecbd 7f7b 45bd 0b65 3ebd
00000210: c595 a3bd 80c7 0cbe 3be8 20be 1cfb e7bd
00000220: 862c a0bd 1711 11bd 4061 83bd 25c5 c6bd
00000230: 158d 25bd edca a8bd 5a2a a6bd 356c 00bd
00000240: 2517 ffbc 69fa 2abd 8aa7 edbd 9680 18be
00000250: 48c3 1cbd 7d06 8fbd 2c25 b03d 2b86 a43e
00000260: 9692 4f3e 9a16 9d3e 3b1a b73c f35e 43bd
00000270: 57c4 6b3e d536 8a3e a5a3 ee3e 8f57 ba3c
00000280: 96a6 fdbd e547 1d3e 74a1 533e 3854 e53e
00000290: d2ba 8c3e 29c7 bcbd 525c d63d 29e1 043e
000002a0: 197c ca3e 5615 ae3e 8ffd 36be b9f4 fabd
000002b0: 7f4e 95bd 7f5e 8f3e 9b49 a53e 0cfe 42bc
000002c0: 74f6 77bb e337 d7bc e5f6 69bc 1bad 85bb
000002d0: 9e33 dd3c 3b2d b1bc bd38 90bd bdd2 10bd
000002e0: 700b ebb9 0e96 bb3d 60f7 4d3d 3579 8bbd
000002f0: c3eb b0bd 7097 3dbd 649e 793d 0a46 403d
00000300: fa84 9f3c f982 e4bc 85fb 54bc a5bf ab3d
00000310: a402 4f3d dd9a e53c 9ec4 babc 8191 96bd
00000320: 41f6 f53d 4834 aabc 9cc3 f93b e4a9 8e3d
00000330: cc04 aa3d 440e 7a3d aa7d 953d 7560 013e
00000340: 678f 20bd cc15 623d 8d4c 043e 7764 aa3d
00000350: 672b 543d 26fb dfbc 7ca8 483d e45a a63d
00000360: f552 483d e88b d63c 9e17 5c3d 7568 2bbd
00000370: b031 afbc 8a43 9b3c abdf 4ebd 1e0d 0b3d
00000380: 88a8 f33c 290c 343d 5340 323d d128 21bd
00000390: 251a 123b cdb0 3abd 80be 213e d1e1 f13c
000003a0: f235 0cbb 51cf a4bd c621 99bd 52fb 07bc
000003b0: 2f22 1c3d 6cd1 97bd c2e6 1abe 93e8 dbbd
000003c0: 05de 613d 53d0 3c3c 6588 bbbd 8bcf 80bd
000003d0: c721 8fbd 7f4e a53c 84ee 25bc 3c9c 87bd
000003e0: ed0b b0bb 42cc d6bb fbe5 163e 2dd3 91bb
000003f0: 5bfe cabc f35e cdbd c9ee 80bd 9c4c 1d3e
0.014547991 0.12540294 0.24983351 0.1746692 0.036820345 -0.08037531 0.17025557 0.25995922
0.34545302 0.08967034 -0.16296585 -0.004191639 0.14899205 0.36023152 0.20223305 -0.15874656
-0.10659951 0.10417105 0.34799284 0.23784627 -0.15766287 -0.16554199 -0.037676085 0.09108094
0.16222978 -0.1835613 -0.21923284 -0.25515732 -0.16643202 -0.10555628 -0.2041429 -0.24770036
-0.26912457 -0.17716315 -0.18655345 -0.1223184 -0.24236916 -0.2421469 -0.26504454 -0.27251583
-0.09493891 -0.116749704 -0.16530992 -0.26924077 -0.2985183 0.006827435 -0.035760853 -0.13613552
-0.18242656 -0.25652862 -0.03765192 -0.020774337 0.007261713 0.0415992 0.105022795 -0.006083658
-0.068290904 -0.11678355 -0.033138346 0.023600167 0.027052598 -0.02968158 -0.12027441 -0.09501543
-0.015060481 0.061424904 -0.05221203 -0.1180145 -0.15182139 -0.050818298 0.10201841 -0.019007916
-0.09605377 -0.12303403 -0.060875934 0.011370931 -0.17865287 -0.18633121 -0.010766081 0.10628763
0.25596258 -0.013831884 -0.21042342 -0.17794284 0.03655291 0.16180483 0.135801 -0.13265088
-0.25194192 0.0012974556 0.24107116 0.22487366 0.06974519 -0.15861118 -0.15408422 0.23632531
0.17496613 0.1435652 0.0027848838 -0.074418955 -0.06816768 -0.07774284 -0.085116774 -0.07013075
-0.02432565 -0.028322298 -0.07838458 -0.08804782 -0.07167335 -0.058445107 -0.028010169 -0.04805949
-0.08091996 -0.08421179 -0.10016314 -0.011794144 -0.03288246 -0.049860265 -0.05955346 -0.09328394
0.0029569347 0.019413164 0.011821435 -0.035465445 -0.040130567 -0.024551718 -0.041278917 -0.06646728
-0.16344462 -0.11529177 -0.04821348 -0.04648308 -0.07987551 -0.13747978 -0.15713589 -0.11327192
-0.07820992 -0.03541669 -0.06415033 -0.09705571 -0.04041775 -0.0824183 -0.08113547 -0.031353194
-0.031138966 -0.041742716 -0.11604221 -0.14892802 -0.038272172 -0.069836594 0.0860084 0.32133612
0.20270762 0.30681306 0.022351375 -0.047697973 0.23024116 0.2699496 0.46609226 0.02274683
-0.12385289 0.15359457 0.20667058 0.44790816 0.27486283 -0.09217674 0.104668275 0.12976517
0.39547804 0.34000653 -0.17870162 -0.122537084 -0.072903626 0.28001782 0.3228272 -0.01190139
-0.0037836106 -0.026271766 -0.014280056 -0.0040794737 0.027002152 -0.021628013 -0.07042072 -0.035357226
-0.00044831214 0.0915948 0.050284743 -0.06810228 -0.08638718 -0.046287 0.06094207 0.046941794
0.019472588 -0.027894484 -0.01299942 0.08386163 0.050539628 0.028027946 -0.022798833 -0.073519714
0.1200986 -0.020776883 0.0076221954 0.06965998 0.08301696 0.06104876 0.07299359 0.12634452
-0.03919926 0.05519657 0.12919827 0.083199434 0.051799204 -0.027341437 0.048988804 0.08122805
0.04890724 0.02618976 0.05373346 -0.041847665 -0.021385998 0.018953104 -0.050506275 0.033948056
0.029743448 0.04395691 0.043518376 -0.039345566 0.0022293415 -0.045578767 0.15795326 0.029526623
-0.0021394459 -0.08047355 -0.07477145 -0.0082996655 0.038118538 -0.07412991 -0.1512709 -0.107377194
0.055143375 0.011524278 -0.091568746 -0.06289586 -0.069888644 0.020179031 -0.010127667 -0.06621596
-0.0053725154 -0.006555111 0.14736168 -0.004450223 -0.02477949 -0.10027876 -0.06295545 0.15361255

layer2.0.bias f4 [16]
00000000: 692b 893c d272 c73b e0e7 133c 68e6 db3b
00000010: f6c3 2bbc a679 9cbd ba87 953b 679b d83b
00000020: fc96 6c3c 19d5 243c 27fb 15bc 64c0 6f3c
00000030: a3c4 44bd b046 1bbc fd5c bebc f4f0 2dbc
0.016744332 0.0060866857 0.009027451 0.006710816 -0.010483732 -0.0764039 0.004563299 0.0066103223
0.014440294 0.010060572 -0.009154118 0.014633272 -0.04803909 -0.009477302 -0.0232377 -0.01061653

fc1.weight f4 [16, 4096]
00000000: 2c2b 63bc 4674 80bb 9582 923b 7044 90bc
00000010: a2de d9bc 1a7e a43c 23da 933a bcf9 a13c
00000020: b340 c23c c433 e83b 87b2 633c 5d7a a33b
00000030: 98d7 04bb 3a39 85bc e064 613b d2c9 4bbc
00000040: 3baf d0ba 1c3c cabb 8ce7 5bbd 4e23 9b3c
00000050: 5b73 d03c d8cd aa3d 5842 993d 04de 9b3d
00000060: f409 d03d acb2 763d d8df 153d 4524 35bc
00000070: 247e 67bd bcab 6abd 5d9c 30bd b7c1 de3b
00000080: aa93 423c 87ae d2bc c4b9 913b eea9 723d
00000090: c9c0 073e 2ca8 023e bc84 173e f85d dc3d
000000a0: 686b 4d3d 4ab7 233d 3c83 2dbc 5f8d 09bd
000000b0: 521c eabc d1d9 a5bd ee42 17bd 02ae d03a
000000c0: 710b 16bc b0a1 8dbc 06a5 403d ee85 843d
000000d0: daba 133e 799f 113e 5792 2a3e 0341 703d
000000e0: f658 273d 8a0d 3d3d feae feba a068 88bc
000000f0: 67a9 50bd 515a 84bd 48bb 86bd 9906 81bc
00000100: 86ce 913b 0895 4abc e015 233d 1931 a63d
00000110: 232f be3d 2bfe 573e bc13 453e 19ad a63d
00000120: e5e9 24bc b57a 4bbc 1e92 9dbc bf7f 54bd
00000130: 558e 83bd 75df c2bd 3031 dcbd d6f8 cf3a
00000140: f9a5 9abb 5001 2d3c f30b 053d 511b 7e3d
00000150: cb52 12bc d4cf c23d 9172 053e 2663 b43d
00000160: d3fc cc3b 1f5f c6bc 33e4 22bd 9175 21bd
00000170: e187 a5bd f2b9 d6bd 83cc c1bd 4a1a 6abc
00000180: eb1c a73b dd56 8abc 5fcb 983b 486e 123c
00000190: 54fd 653c 5799 bd3c a537 0a3d dc39 3d3d
000001a0: ce66 e63c 6f05 dcbc 22be 7239 cd7b 3fbd
000001b0: 30c2 92bd 2aa3 e5bd 9fa8 b1bd f401 0ebc
000001c0: deec 113c de64 4cbd b532 17bc 1021 8a3b
000001d0: 25a1 26bd 310e cb3c 964c 1dbb 0e4f 61bd
000001e0: 86e4 143d 49f0 aa3d 8360 30bc c833 8cbc
000001f0: 7bcd 42bd 2772 03be bf83 a1bd 0a26 adbc
00000200: dff8 153c 448f 7cbd b564 73bd 6719 ebbc
00000210: 5672 203c c28b 493c 12fa 4dbb eee3 e2bb
00000220: 4f3f 48bd 6001 9f3d 7056 643c 85ab d3bc
00000230: 4c50 dbba 6202 0bbd 9460 c4bd a0c0 983c
00000240: 7d52 363b 14ef e0bd 605a 9cbd 2eb5 1dbd
00000250: 0039 0fbd b77f d3bb 2dcc 4a3d 8f17 b5bb
00000260: 3521 2fbc f821 af3c 0287 48bc 3635 043c
00000270: 2741 86bb ef5d 1dbd 888b 8d3b 6b9d b43b
00000280: d1f2 b83b 57ad f8bd 5c7c 6abd 9b8e 52bd
00000290: 7884 6cbd d91c dabc 9067 f9bc d691 2b3d
000002a0: b737 543d 4aaf b83c 3312 593b da68 193d
000002b0: b774 1b3d 3503 9d3c f501 5d3b d32d b53c
000002c0: 7382 c1bb 3479 c9bd b6f3 59bd 1337 61bd
000002d0: 7ad5 20bd 0d09 cbbc 1305 fabc e5d8 2b3d
000002e0: 97b2 003e dffa 053e 9542 943d b19a d93d
000002f0: 1b40 963d 0e03 c73c 08b2 d43b f7bc 853c
00000300: 553e d13b 2382 47bd 384b 74bd 17b9 0ebd
00000310: 9da7 9ebc dbd2 02bc ad23 453c 6d55 343c
00000320: b690 f33d 125e 293e 65b8 103e 8d0b e63d
00000330: dcdf 9d3d bc41 cb3c 8bce 1abc 81dc 373c
00000340: 58a5 ebbb cbdb 65bd c69a 31bd a856 65bc
00000350: 750b 93bc 79a4 4e3c d538 a03d 2cb6 003e
00000360: 964d 1d3e 723b 3d3e b778 3d3e 8d57 af3d
00000370: b52e 413d c6b9 a5bc dbf8 6abb 4f6b 373c
00000380: aaeb dd3b 45e2 793c 7e55 b7bc a500 4bbd
00000390: 1e20 89bc 5933 2abb 6a12 323d e793 323d
000003a0: 3dd4 943d 39f9 753d 7047 3a3d 87d2 783c
000003b0: d2f0 103c 0cc2 eebb f8a8 4abd 483f 573c
000003c0: 1bf9 e4bb abcc 0d3d ef99 053b d9d6 5ebc
000003d0: 1698 12bc 9aa7 623c 852b 2fb9 c264 e13b
000003e0: a17a 2f3d 2899 983b 55db 07bc 8d96 46bb
000003f0: b661 953c 525b 8bbb 5e9f f2bb 954c 44bb
-0.013865273 -0.003920111 0.004471133 -0.017610759 -0.026595417 0.020079661 0.001128022 0.019772403
0.023712492 0.007086249 0.013897545 0.004988952 -0.0020270105 -0.01626264 0.0034392402 -0.012438254
-0.0015921363 -0.0061717164 -0.053687617 0.018937733 0.02544563 0.08340043 0.07483357 0.076107055
0.101581484 0.06022899 0.036590427 -0.011056011 -0.05651678 -0.057292685 -0.04311787 0.006797995
0.011876026 -0.025717987 0.004447194 0.05924409 0.13257135 0.12759465 0.14796728 0.107601106
0.05015126 0.03996972 -0.010590371 -0.033582088 -0.028577957 -0.08098186 -0.036929063 0.0015920999
-0.009158001 -0.017289013 0.04703238 0.064708576 0.14426747 0.1422099 0.16657387 0.05865575
0.040856324 0.04615549 -0.0019430814 -0.016651452 -0.050942805 -0.06462539 -0.0657869 -0.015750216
0.0044496683 -0.012364633 0.039815784 0.081148334 0.09286334 0.21093051 0.1924581 0.081384845
-0.01006553 -0.012419392 -0.019234713 -0.05187964 -0.06423632 -0.09515277 -0.10751569 0.0015867006
-0.0047194925 0.010559395 0.0324821 0.06203777 -0.008930872 0.09512296 0.13031985 0.088079736
0.006255725 -0.02421528 -0.03976841 -0.03941876 -0.080825575 -0.10484685 -0.09462836 -0.014288494
0.005099883 -0.016887123 0.0046629156 0.008937426 0.014037449 0.023144407 0.033744473 0.046197757
0.028125193 -0.02685806 0.00023149748 -0.046748925 -0.071659446 -0.11212762 -0.0867474 -0.008667458
0.008906571 -0.049900882 -0.009228398 0.004215367 -0.040681023 0.02478704 -0.0024001948 -0.055007033
0.03635075 0.08346612 -0.010765198 -0.017114535 -0.047559243 -0.12836514 -0.07886457 -0.021136303
0.009153574 -0.061660066 -0.059422214 -0.028698636 0.009792885 0.012301387 -0.003142957 -0.006924144
-0.0488885 0.07763934 0.013936624 -0.025838623 -0.0016732304 -0.03393782 -0.09588733 0.018646538
0.0027820163 -0.109831005 -0.07634425 -0.038502865 -0.03496647 -0.006454434 0.049511123 -0.00552649
-0.0106890695 0.021378502 -0.01223922 0.008069327 -0.0040971222 -0.03841966 0.004319612 0.0055119297
0.0056441803 -0.12142437 -0.057247505 -0.05140553 -0.05774352 -0.026625084 -0.03044489 0.041887127
0.051810946 0.022544522 0.003312242 0.03745351 0.037953105 0.019166568 0.003372309 0.022116577
-0.0059054433 -0.09837571 -0.053210936 -0.054984163 -0.039266087 -0.02478459 -0.030519998 0.041954894
0.12568127 0.13083981 0.07239262 0.10625208 0.07336446 0.024293449 0.0064909495 0.016325457
0.0063856044 -0.048708092 -0.059642047 -0.034844484 -0.019367034 -0.007984842 0.012032432 0.011006695
0.11892836 0.16539791 0.14132841 0.11232672 0.077087134 0.024811618 -0.009448658 0.011222006
-0.0071913414 -0.056117814 -0.043360494 -0.013997711 -0.0179498 0.0126124555 0.0782334 0.12569493
0.15361628 0.18479708 0.1850308 0.08561621 0.047163684 -0.020230185 -0.0035853896 0.011195018
0.006772478 0.015251701 -0.022379633 -0.04956116 -0.016738947 -0.0025970547 0.043474592 0.043598082
0.07267044 0.06005213 0.045478284 0.015186912 0.008846479 -0.007286316 -0.049477547 0.013137646
-0.0069877035 0.034619015 0.002038594 -0.013601028 -0.008947393 0.013833905 -0.00016705513 0.0068784663
0.042841557 0.0046569295 -0.008292039 -0.0030302138 0.018235069 -0.0042528296 -0.007404252 -0.0029952873

fc1.bias f4 [16]
00000000: 4a06 ca3a c9bc aabc 14ef 47bc 5eff 4c3b
00000010: 32af 6bbc 6300 56ba 1208 bcba ee0f fdb9
00000020: bcf0 87ba fb45 d53b 4889 c73b 75b6 323b
00000030: 0eb6 5bbb 1fa6 833c 0a9c 2a3b bfd7 abbb
0.0015413251 -0.020841973 -0.012202997 0.003128014 -0.014385032 -0.000816351 -0.0014345667 -0.0004826779
-0.0010371427 0.0065085865 0.0060893632 0.0027269397 -0.003352526 0.016070424 0.0026032948 -0.005244225

fc2.weight f4 [2, 16]
00000000: bb27 08be 110e b13e 24d9 9c3e d12e b1be
00000010: e63e d43e 43cf bcbe 026d 8fbe b94c 00be
00000020: ab17 a93e d167 a83d 80b6 ca3e 2314 f2bd
00000030: 9f0c 96be e761 9bbe d8d0 cd3e 3b04 78be
00000040: 7eb1 a03e df7d 8abe f4fc 59be 5b14 a13e
00000050: 94b3 27bd ce28 793e 968e 9a3e ca47 df3e
00000060: 9bf6 50bc e5d6 d2be 1316 19bd dfae c93e
00000070: 2e19 563e 1283 9c3e 0550 c0bd 3fbb a93e
-0.13296406 0.34581044 0.30634415 -0.3460603 0.41454238 -0.36876878 -0.28012854 -0.12529267
0.3302587 0.082229264 0.3959236 -0.11820247 -0.29306504 -0.3034813 0.40198398 -0.24220364
0.31385416 -0.27049157 -0.212879 0.31460842 -0.040942743 0.24331972 0.3018691 0.43609458
-0.012754108 -0.41179577 -0.037374567 0.3939123 0.20908043 0.3056875 -0.093902625 0.3315067

fc2.bias f4 [2]
00000000: aa2a 5b3e ca7e 35be
0.21402994 -0.17724147
