dianna/models/penguin_model.onnx (onnx, 1253 bytes, 4 tensors)

model/dense_1/MatMul/ReadVariableOp:0 f4 [10, 3]
0	0xbf048c0c	-0.51776195
1	0xbdc6bdef	-0.09704196
2	0x3ee6f16c	0.45106065
3	0xbee2c6f2	-0.44292408
4	0xbed19ea1	-0.40941337
5	0xbf13397d	-0.57509595
6	0x3dc9c618	0.098522365
7	0x3eb39f50	0.35082483
8	0x3d54d250	0.051958382
9	0x3c8a56a7	0.016887022
10	0x3dc621cb	0.09674414
11	0xbe98a0ed	-0.29810277
12	0xbe745f89	-0.23864569
13	0xbeb7f27e	-0.35927194
14	0x3ebe1c1c	0.3713082
15	0xbd3c69a0	-0.04599917
16	0x3f0417ce	0.51598823
17	0xbe1f016c	-0.15527886
18	0xbec6f875	-0.38861433
19	0xbef130a7	-0.4710743
20	0x3e4d11dc	0.20026344
21	0x3ea20963	0.31647786
22	0x3f34154f	0.70345014
23	0x3ec94ef7	0.39318058
24	0xbee75e1f	-0.45188996
25	0xbf0056e5	-0.5013259
26	0xbf043e02	-0.51657116
27	0x3e5b55c3	0.21419434
28	0xbde8400d	-0.11340342
29	0x3ee3d952	0.4450174

model/dense_1/BiasAdd/ReadVariableOp:0 f4 [3]
0	0x3e389f6a	0.18029562
1	0x3e8ed36a	0.2789567
2	0xbe6ece72	-0.2332094

model/dense/MatMul/ReadVariableOp:0 f4 [4, 10]
0	0x3ec7faad	0.39058438
1	0x3f23382a	0.63757575
2	0xbed2de40	-0.41185188
3	0x3e8f3a54	0.27974188
4	0xbe47c04a	-0.19506946
5	0xbe6a3566	-0.22871932
6	0xbf0baff4	-0.5456536
7	0xbea514be	-0.32242388
8	0xbe8b9c2f	-0.27267596
9	0xbf545f78	-0.82958174
10	0x3d832e44	0.06405309
11	0xbe0fbd04	-0.14036947
12	0x3ef497b4	0.4777199
13	0x3e367641	0.17818548
14	0x3e9ff90b	0.31244692
15	0xbddbfdb8	-0.107417524
16	0xbecd4c06	-0.40097064
17	0xbd9a52f9	-0.07535357
18	0xbe83ca26	-0.25740165
19	0xbd111c9d	-0.03542768
20	0xbeafa4b7	-0.34305355
21	0xbecea173	-0.4035755
22	0xbefb4434	-0.49075472
23	0x3ee29f4f	0.44262168
24	0x3ee72781	0.45147327
25	0xbf02b139	-0.5105167
26	0xbefcc944	-0.49372303
27	0xbeab489e	-0.3345384
28	0xbdf0c060	-0.117554426
29	0x3e246b77	0.1605662
30	0x3b55c6c2	0.003261969
31	0xbc4de0c0	-0.012565792
32	0xbee3714e	-0.44422382
33	0x3f3f71f1	0.74783236
34	0x3e8223bf	0.25417897
35	0xbeaf3262	-0.34218127
36	0x3d21de57	0.03951868
37	0x3e284c80	0.16435432
38	0xbf0f6914	-0.5601971
39	0x3e842d17	0.2581565

model/dense/BiasAdd/ReadVariableOp:0 f4 [10]
0	0xbdb64bd6	-0.08901183
1	0x00000000	0.0
2	0x00000000	0.0
3	0x3e827b90	0.25484896
4	0xbe5cde32	-0.21569136
5	0x00000000	0.0
6	0xbe32810f	-0.17432044
7	0xbd19f4f3	-0.037587117
8	0x00000000	0.0
9	0xbe5fff07	-0.21874629
