dianna/models/sunshine_hours_regression_model.onnx (onnx, 5858 bytes, 5 tensors)

sunshine_prediction_model/dense_20/MatMul/ReadVariableOp:0 f4 [5, 1]
0	0xbf494ee6	-0.78636014
1	0x3f5fab56	0.8737081
2	0x3f3a0245	0.72659713
3	0x3f4f91d2	0.8108188
4	0xbe95773a	-0.29192525

sunshine_prediction_model/dense_19/MatMul/ReadVariableOp:0 f4 [10, 5]
0	0xbf31e421	-0.6948872
1	0xbf02464a	-0.508885
2	0x3e754c25	0.23954828
3	0xbe6c9eee	-0.23107502
4	0xbf44cf00	-0.76878357
5	0xbed2f8d8	-0.41205478
6	0x3da55cd4	0.08074346
7	0xbebe9ca6	-0.37228888
8	0xbe922b87	-0.28548834
9	0xbf1a73db	-0.6033303
10	0xbedfbaae	-0.43697113
11	0xbf02e4a3	-0.5113012
12	0x3ead3464	0.33829033
13	0xbf06fb69	-0.5272737
14	0x3e9899df	0.29804894
15	0xbf3767bf	-0.7164268
16	0x3dd8de48	0.10589272
17	0x3e56acbe	0.20964333
18	0x3b050fe8	0.002030367
19	0x3e385437	0.18000875
20	0x3ef94012	0.48681694
21	0x3e4ff402	0.20307925
22	0x3ea87bc0	0.32906914
23	0xbeef411c	-0.46729362
24	0x3eb10ae4	0.3457862
25	0x3dc7a5c8	0.09748417
26	0xbf558968	-0.8341279
27	0xbe92179e	-0.28533643
28	0xbe24756c	-0.16060418
29	0xbebcf360	-0.3690443
30	0xbf047bb1	-0.5175124
31	0xbf170418	-0.5899062
32	0xbedcf6c2	-0.4315701
33	0xbe09c200	-0.13452911
34	0x3f827d4f	1.0194491
35	0xbeb49218	-0.3526771
36	0xbdfe712b	-0.12423929
37	0x3e8d73a3	0.27627286
38	0xbf00f90e	-0.5038003
39	0xbf1da381	-0.6157761
40	0x3d75fb2b	0.060053986
41	0x3ecfff45	0.40624443
42	0x3f36d0b0	0.7141218
43	0x3f174341	0.59086996
44	0x3e9c0570	0.30472898
45	0xbe9d26ae	-0.30693573
46	0xbf86b0f3	-1.0522751
47	0xbef100c6	-0.47070903
48	0xbd83c7f8	-0.064346254
49	0x3bffbc93	0.007804462

sunshine_prediction_model/dense_19/BiasAdd/ReadVariableOp:0 f4 [5]
0	0xbc925dcd	-0.017866993
1	0x3e5852be	0.21125314
2	0x3da0d1b3	0.07852497
3	0xbdfd092d	-0.12355266
4	0xbb01488b	-0.0019727077

sunshine_prediction_model/dense_18/MatMul/ReadVariableOp:0 f4 [89, 10]
0	0xbe893ae6	-0.26802748
1	0x3e0eb59a	0.13936463
2	0xbe1c410e	-0.15259191
3	0xbdae3f43	-0.0850816
4	0xbdfee05d	-0.12445138
5	0x3e28190c	0.16415805
6	0xbe48f699	-0.1962532
7	0xbdf3861d	-0.118908145
8	0xbdd50706	-0.1040173
9	0x3e652a65	0.22379453
10	0xbd530094	-0.051514223
11	0x3e0941b5	0.13403971
12	0xbde2d5ed	-0.11075959
13	0x3e2b3f8c	0.1672346
14	0xbd37e1f5	-0.044893224
15	0x3dcb7a52	0.0993544
16	0xbd19be71	-0.037535135
17	0xbd8451cd	-0.06460915
18	0xbe1ca12e	-0.1529586
19	0x3c8ddd83	0.01731754
20	0x3e829e03	0.25511178
21	0xbc2673e0	-0.010159463
22	0xbdea5f40	-0.11443949
23	0xbd384eee	-0.04499715
24	0x3da5d2c2	0.080968395
25	0x3dbc8f32	0.09207
26	0x3e2f527a	0.17121306
27	0x3ea35ec7	0.31908247
28	0xbe511793	-0.20419149
29	0x3e3d20ac	0.18469495
30	0x3e16edaa	0.14739099
31	0x3e2c5c6c	0.16832131
32	0x3d4d6d6c	0.05015318
33	0xbcf8855e	-0.030337032
34	0x3e8a27c1	0.26983455
35	0xbdd4474d	-0.10365162
36	0xbd69bfb7	-0.0570676
37	0x3e53a65f	0.20668934
38	0x3cfd9ce6	0.030958604
39	0xbebec32c	-0.3725828
40	0xbddd79e6	-0.10814266
41	0x3f2c9d1a	0.6742722
42	0xbf5ad5ec	-0.8548267
43	0xbf8ac6b0	-1.0841885
44	0xbfad6734	-1.354712
45	0xbeb7ab4d	-0.3587288
46	0xbf1771a1	-0.5915776
47	0xbf8df267	-1.10896
48	0x3db625b6	0.088939115
49	0xbe9e1fbe	-0.30883592
50	0x3e41b747	0.18917571
51	0x3e0d3e53	0.13793306
52	0x3c9eeb45	0.019399295
53	0x3d394a08	0.045236617
54	0x3e1d77dd	0.15377755
55	0xbe142eef	-0.14471029
56	0x3e5fdf75	0.21862586
57	0x3ea4afa9	0.32165268
58	0xbe04b2f0	-0.12958884
59	0xbe2f7bf5	-0.1713713
60	0xbe6503ba	-0.22364703
61	0xbde5d30f	-0.11221897
62	0x3dd84452	0.10559906
63	0x3e457c83	0.19285779
64	0xbded78e1	-0.115953214
65	0xbe4a49c6	-0.19754705
66	0xbe5641ca	-0.20923534
67	0x3e332480	0.17494392
68	0xbdf08cd2	-0.11745609
69	0x3e915f2d	0.28392926
70	0xbe2beb71	-0.16789033
71	0xbe46c3a5	-0.1941057
72	0x3e18e26e	0.14930126
73	0x3cfcde39	0.030867683
74	0xbe844be9	-0.25839165
75	0x3c8b13cf	0.016977219
76	0x3e40ef15	0.18841203
77	0xbea76c29	-0.32699707
78	0x3e2f1f4d	0.17101784
79	0x3e0757cd	0.13217087
80	0x3d9d57f6	0.07682793
81	0xbd1d51f5	-0.03840824
82	0x3da03eb6	0.07824461
83	0x3e04ad82	0.12956813
84	0xbddba8b7	-0.10725539
85	0xbde00814	-0.10939041
86	0x3cdc698a	0.026905794
87	0xbd8feffe	-0.07028197
88	0xbd05549e	-0.0325514
89	0x3d90763b	0.07053801
90	0xbe19b7e1	-0.1501155
91	0x3e5ffb8f	0.21873306
92	0xbdfbad91	-0.122889645
93	0x3e965833	0.29364166
94	0x3c112a8a	0.00886024
95	0x3e02af7d	0.12762256
96	0xbd044104	-0.032288566
97	0xbe07d7d6	-0.13265929
98	0xbd532eef	-0.05155843
99	0xbe0e916e	-0.13922665
100	0x3e28b0e0	0.16473722
101	0x3e7ac2e7	0.24488412
102	0x3cf52467	0.029924585
103	0xbda133e0	-0.078712225
104	0x3e597f6c	0.21240014
105	0xbe308f05	-0.17242058
106	0x3dac30f2	0.08407773
107	0x3e2262b0	0.15857959
108	0x3e7b9223	0.24567465
109	0xbe05cdfd	-0.1306686
110	0x3d6ef78b	0.058341544
111	0x3b41d00d	0.002957347
112	0x3d92d8f4	0.07170287
113	0x3e9dcf9c	0.30822456
114	0xbddbf261	-0.107395895
115	0xbd99135f	-0.07474398
116	0xbdb62aab	-0.08894857
117	0x3e5ce9e0	0.21573591
118	0x3c4b8edf	0.0124242
119	0x3e557700	0.20846176
120	0xbe6a3f7b	-0.22875778
121	0xbdf22305	-0.11823086
122	0x3e365d88	0.17809117
123	0xbe28718d	-0.16449566
124	0xbcf3747b	-0.029718628
125	0x3e30a177	0.17249094
126	0x3e29cb58	0.16581476
127	0x3d93b7c5	0.07212786
128	0xbe77fee8	-0.24218333
129	0xbe93d40f	-0.28872725
130	0xbec51c33	-0.38498077
131	0x3ed9b933	0.42524108
132	0xbe8bc222	-0.2729655
133	0xbf3d642a	-0.73980963
134	0xbef73d77	-0.4828908
135	0x3e09036c	0.13380212
136	0x3ec38b65	0.38192287
137	0xbdef732b	-0.116918884
138	0xbe149720	-0.14510775
139	0x3e9752b6	0.2955529
140	0x3a360a7a	0.000694431
141	0x3e7c173c	0.24618238
142	0xbd6e8b52	-0.058238335
143	0x3d8c07cc	0.06837425
144	0x3e82a505	0.25516525
145	0xbcee84ea	-0.029116113
146	0x3e59162d	0.21199866
147	0xbd96019a	-0.07324524
148	0xbd1e4fff	-0.03865051
149	0xbe8a1456	-0.2696864
150	0xbf30ff2f	-0.6913938
151	0xbe7c9608	-0.24666607
152	0xbe4bc982	-0.19901088
153	0xbd5a6eb6	-0.05332824
154	0xbdf92d15	-0.12166802
155	0xbe8e3f94	-0.2778288
156	0xbe87e857	-0.2654445
157	0xbe1be555	-0.15224202
158	0x3e4dccd0	0.20097661
159	0xbe9861b1	-0.29762033
160	0xbddf455c	-0.10901901
161	0xbe50fc2a	-0.20408693
162	0x3e479c21	0.19493152
163	0xbd721a53	-0.059107136
164	0xbe36f6ed	-0.17867632
165	0xbd243a92	-0.04009492
166	0xbe2c1985	-0.1680661
167	0xbe54e512	-0.20790508
168	0x3e5788b1	0.21048237
169	0xbd50b907	-0.050957706
170	0xbf2a3bf4	-0.6649773
171	0xbc27bdf6	-0.010238161
172	0xbe45201c	-0.1925053
173	0x3e0edb9f	0.13950966
174	0xbe21f0cc	-0.15814513
175	0x3e7a17f4	0.244232
176	0xbe3980d8	-0.18115556
177	0x3c851ae7	0.01624818
178	0xbe7dce38	-0.24785697
179	0xbe3f1e04	-0.18663794
180	0x3ec0af56	0.3763377
181	0x3e6f55be	0.23372552
182	0x3e2df6ac	0.16988629
183	0xbc4e4ee8	-0.012592055
184	0xbdb10c92	-0.08644976
185	0xbe0bfb1f	-0.13670014
186	0x3d346620	0.044042706
187	0xbbac28bc	-0.0052538794
188	0xbdb86578	-0.09003729
189	0x3d5cbb10	0.053889334
190	0xbd7180ab	-0.058960598
191	0x3dfb7dd1	0.12279857
192	0x3c9bccff	0.019018648
193	0xbd8783ab	-0.066169105
194	0x3e2e6ddc	0.17034096
195	0x3da063e8	0.078315556
196	0xbd851434	-0.06497994
197	0x3e5799cf	0.21054767
198	0x3e932db6	0.28745812
199	0xbd0e8af1	-0.034800474
200	0xbd597fa2	-0.053100236
201	0xbf1944ed	-0.598708
202	0x3e926dc0	0.28599358
203	0x3d9efc67	0.07762986
204	0x3edc2b7c	0.43001926
205	0xbdd4bfb2	-0.103881255
206	0xbebcacd9	-0.36850622
207	0x3dab2497	0.08356588
208	0xbd01591d	-0.031579126
209	0xbe77a1e3	-0.24182849
210	0x3dbafdbe	0.09130429
211	0xbe3eea33	-0.18644027
212	0x3ebf2ec9	0.37340382
213	0x3ee812bf	0.45326802
214	0x3e201094	0.15631324
215	0x3f91d7da	1.1393998
216	0xbe1fceb6	-0.15606198
217	0x3e89b541	0.26896098
218	0x3e32cc43	0.17460732
219	0xbecdb0f0	-0.40174055
220	0xbe41f874	-0.18942434
221	0xbeaf6379	-0.3425558
222	0xbdfe868c	-0.124280065
223	0xbdd5c58a	-0.10438068
224	0x3d2f8b4c	0.042857453
225	0x3e734218	0.23755682
226	0xbe8e0054	-0.27734625
227	0xbd486204	-0.0489216
228	0x3cb3b53d	0.021937007
229	0xbecded7a	-0.40220243
230	0x3d530585	0.051518936
231	0xbd835529	-0.064127274
232	0xbd17b722	-0.037039883
233	0x3e3dc526	0.18532237
234	0x3e2601c4	0.16211611
235	0x3e47b2cc	0.195018
236	0x3ce5cf3e	0.028052922
237	0xbdb41a23	-0.08794048
238	0x3e19265e	0.14956042
239	0xbdde3443	-0.10849812
240	0x3cd041ae	0.025421944
241	0xbe7e6155	-0.24841817
242	0xbe1195ee	-0.1421735
243	0x3e939c16	0.28830022
244	0xbd26948d	-0.040669013
245	0x3e823a23	0.2543498
246	0xbe6cc705	-0.23122795
247	0xbdc6c613	-0.097057484
248	0xbe424d20	-0.18974733
249	0xbe883861	-0.26605514
250	0xbe3e592a	-0.18588701
251	0xbd03b75e	-0.032157294
252	0x3e5c936c	0.21540612
253	0x3d8d4892	0.06898607
254	0xbe26437f	-0.16236685
255	0xbe5268e1	-0.2054782

sunshine_prediction_model/dense_18/BiasAdd/ReadVariableOp:0 f4 [10]
0	0x3d3e7592	0.046498843
1	0x3d1a7bf4	0.037715867
2	0xbcb8e4c5	-0.022570023
3	0x3dacb6c9	0.08433301
4	0x3d0773af	0.03306931
5	0xbcf503b0	-0.029908985
6	0xbd4b05b7	-0.049565997
7	0x3d5c3beb	0.05376808
8	0x3ceda770	0.029010504
9	0x3b751843	0.0037398494
