dashboard/data/season_prediction_model_temp_max_binary.onnx (onnx, 4966 bytes, 10 tensors)

model_2/dense_2/MatMul/ReadVariableOp:0 f4 [4, 2]
0.5261889 0.21363904 -0.9486516 -0.33028942 -0.070335194 -0.15288128 -0.7828113 -1.0280164
00000000: 51b4 063f 31c4 5a3e d5da 72bf b21b a9be
00000010: e60b 90bd e98c 1cbe 5266 48bf 0b96 83bf

model_2/dense_2/BiasAdd/ReadVariableOp:0 f4 [2]
0.022851337 -0.022851339
00000000: ba32 bb3c bb32 bbbc

model_2/conv1d_5/conv1d/ExpandDims_1:0 f4 [4, 8, 1, 2]
0.11610461 0.0026634117 0.14441423 -0.14868808 -0.078391775 0.010562628 -0.4600431 0.37178698
-0.12167737 0.045990374 -0.25458014 -0.04487015 0.5134747 0.25387418 0.43055952 -0.3566335
0.057112854 0.2565445 0.46277964 0.44776684 0.0012978092 0.11327706 0.097490706 -0.38307223
-0.34941 0.31396288 -0.4704026 0.09091019 0.007542604 0.3418645 0.2986844 0.2106054
0.37917075 0.1899562 0.39215815 -0.018275715 -0.2748798 -0.38223884 0.17358677 0.009869541
-0.13162975 -0.36074698 -0.0023475182 -0.39354533 0.094411395 -0.33488363 -0.55275023 0.26681143
-0.3309912 0.3115526 0.15957038 -0.15989776 0.25407198 -0.26493022 0.2750712 0.3816543
0.49579203 -0.31052068 0.5265919 0.39702296 0.37137866 0.41633067 0.05754364 -0.29209659
00000000: 41c8 ed3d a28c 2e3b 53e1 133e b041 18be
00000010: de8b a0bd df0e 2d3c c58a ebbe dd5a be3e
00000020: fc31 f9bd 6760 3c3d 5458 82be c3c9 37bd
00000030: 1473 033f ccfb 813e 4c72 dc3e ab98 b6be
00000040: 2bef 693d cd59 833e 74f1 ec3e b241 e53e
00000050: 401b aa3a cefd e73d 35a9 c73d 0b22 c4be
00000060: dee5 b2be bebf a03e 9cd8 f0be 1f2f ba3d
00000070: f327 f73b dd08 af3e 29ed 983e f1a8 573e
00000080: ab22 c23e e183 423e f4c8 c83e f4b6 95bc
00000090: 0cbd 8cbe cfb4 c3be bbc0 313e dbb3 213c
000000a0: f3c9 06be d4b3 b8be d2d8 19bb c67e c9be
000000b0: c35a c13d de75 abbe 0a81 0dbf 829b 883e
000000c0: ae77 a9be d383 9f3e 6b66 233e 3dbc 23be
000000d0: b915 823e efa4 87be 22d6 8c3e 3168 c33e
000000e0: 74d8 fd3e 91fc 9ebe bace 063f 9846 cb3e
000000f0: 5825 be3e 4b29 d53e e1b2 6b3d af8d 95be

model_2/conv1d_4/conv1d/ExpandDims_1:0 f4 [8, 1, 1, 8]
0.051812463 -0.1994266 -0.3037745 0.064542174 0.15515192 -0.1721198 0.10828038 -0.036190197
-0.067963876 -0.21749689 -0.03750752 -0.047008764 0.059830587 0.19941516 -0.054029685 -0.12905109
-0.16244134 -0.16769569 0.04164259 0.0020545446 -0.06158906 0.18835141 -0.038953315 0.05236596
0.025563983 0.15779182 -0.15200885 -0.15507881 -0.17859732 -0.20379977 -0.04018506 -0.09241175
-0.32151514 -0.19319102 0.13550158 0.15972084 0.21151969 0.155427 0.23746629 -0.12063406
0.054621592 0.09058927 0.012629662 -0.088761725 0.25746527 0.06482449 0.08828593 -0.0887827
0.15040757 0.08994076 -0.19656841 0.2759661 -0.08293596 0.054752853 -0.11912376 0.051207896
0.16330893 0.2856735 0.1584807 -0.10959716 0.14442743 -0.17610094 0.17530915 0.12691775
00000000: 4e39 543d 7d36 4cbe 5588 9bbe b02e 843d
00000010: 25e0 1e3e 2c40 30be 1bc2 dd3d 2c3c 14bd
00000020: a530 8bbd 81b7 5ebe 7ca1 19bd 438c 40bd
00000030: eb10 753d 7d33 4c3e 3b4e 5dbd f825 04be
00000040: 0657 26be 6bb8 2bbe 6c91 2a3d 8aa5 063b
00000050: cf44 7cbd 31df 403e 838d 1fbd b07d 563d
00000060: 8f6b d13c 2e94 213e 35a8 1bbe fbcc 1ebe
00000070: 37e2 36be e3b0 50be 1799 24bd 5f42 bdbd
00000080: a29d a4be ded3 45be edc0 0a3e dc8d 233e
00000090: 9e98 583e 4128 1f3e 5d2a 733e fd0e f7bd
000000a0: e4ba 5f3d de86 b93d a4ec 4e3c b5c8 b5bd
000000b0: 7dd2 833e b4c2 843d 41cf b43d b4d3 b5bd
000000c0: 7104 1a3e dc32 b83d 3b49 49be 6e4b 8d3e
000000d0: 54da a9bd 8744 603d 28f7 f3bd 5fbf 513d
000000e0: 753a 273e cc43 923e c448 223e 7a74 e0bd
000000f0: c9e4 133e ce53 34be 3e84 333e baf6 013e

model_2/batch_normalization_5/StatefulPartitionedCall/StatefulPartitionedCall/batchnorm/mul:0 f4 [1, 4, 1]
1.8094712 1.4225898 0.8265134 1.3587861
00000000: c19c e73f 6c17 b63f 6296 533f b4ec ad3f

model_2/batch_normalization_4/StatefulPartitionedCall/StatefulPartitionedCall/batchnorm/mul:0 f4 [1, 8, 1]
0.43847013 0.47372127 0.5915177 0.21243946 0.35144904 0.38450968 0.58117557 0.17554167
00000000: 287f e03e 988b f23e b46d 173f bb89 593e
00000010: 21f1 b33e 74de c43e ecc7 143f 32c1 333e

const_fold_opt__58 f4 [1, 4, 1]
-0.08308356 -0.7718351 0.0913644 -0.9783549
00000000: b727 aabd fc96 45bf 421d bb3d 7775 7abf

const_fold_opt__57 f4 [1, 4, 1]
0.00035377874 0.002380348 -9.371085e-05 -0.0008928943
00000000: 617b b939 9dff 1b3b a186 c4b8 1f11 6aba

const_fold_opt__56 f4 [1, 8, 1]
-6.4235086e-05 8.913657e-05 -2.6715988e-05 0.00030082633 -3.7061498e-05 -0.00013752571 -6.274188e-05 -4.5937277e-06
00000000: f3b5 86b8 d5ee ba38 261c e0b7 3ab8 9d39
00000010: 7b72 1bb8 c734 10b9 4a94 83b8 d223 9ab6

const_fold_opt__54 f4 [1, 8, 1]
1.4707909 1.6286827 -0.056073744 1.3216678 -1.0658493 -1.5724556 -1.3795649 -1.5028343
00000000: e042 bc3f ad78 d03f 95ad 65bd 692c a93f
00000010: c06d 88bf 3a46 c9bf 9595 b0bf e05c c0bf
